squadro/Data/best_params_5.pth (torch, 15488 bytes, 3 tensors)

linear1.weight f4 [64, 50]
00000000: 82ee c23d 22a5 ff3c 56b8 0abd 9aea 9ebc
00000010: a885 61be 9903 173d d024 acbd c825 093e
00000020: 1cb0 2f3d 0aab a73d c766 51bd 140c 16be
00000030: e3f3 66bb 7c18 c7bd 6285 9abc 00a9 db3d
00000040: 8848 debd e427 b5bc 986f 83be 93bf 6f3e
00000050: 85ba 1e3e e57d db3f 989f 573e 54b8 c93f
00000060: b41f afbd f488 7cbf 083b bdbd a968 58bf
00000070: 0468 03be c2cd 8a3d 3f4c 2ebe 2e0c 6a3d
00000080: 1c06 57be 5de7 cfbd 32a4 7fbe fdc3 423e
00000090: 71f4 3e3e a0b0 1340 a798 ad3d 3991 343c
000000a0: 36f9 fbbd e305 80be a6a2 e23d 0a49 533e
000000b0: 6954 483e e894 b33c 054a 0f3e e9a7 01be
000000c0: a0f7 6b3c d02e 03bd 84bd 9fbd 7405 733e
000000d0: 82b0 373e 2f80 73bd e223 313d 2b59 063e
000000e0: 0c22 8b3d 6255 aebd 553a b1be aca6 c63e
000000f0: 0365 ab3e 10e6 f6bc f7e2 2bbe 2b75 ae3d
00000100: 4bfc 88be 0530 0fbe e212 9b3d ea54 15be
00000110: 6007 e9bc 9c21 7ebe 050a 1fc0 9191 d83e
00000120: 9307 c3b9 1ac1 51be 4aae 923d 1bd8 ebbd
00000130: b235 a4be 804f 20bf e38e fc3e 058c 73c0
00000140: ab07 d7bd c6be 05be 43df acbe 5e2f c9bf
00000150: 7323 7ec0 278f 8e3d 6c15 85bf 3551 a83f
00000160: b6e6 c3be 6698 c8be b70c efbe c187 d8bf
00000170: 5086 34bd e677 fcbe c9b4 7dbe f8e6 11bc
00000180: 7d3e 79be e3c3 1fbf 60b5 a23c b4ae 20bd
00000190: 9cca d5bd 159e d73f 737c fe3e f2ea 44bd
000001a0: 5dac e6bd 0b53 9e3f 2f5d 02be d7fb 113f
000001b0: 1c53 ae3d 4751 513f 1d49 633e e207 3f3e
000001c0: cd5d afbf 4049 86be 80cb 543f d573 31be
000001d0: 740f 603f 332e 2d3f 7d3f dabd ce1d 45bf
000001e0: d46f 27bf 6877 6e40 a9f2 67bf 518d 913d
000001f0: b4e3 87bd 179a 5fbf 3683 a8bf a095 1ebf
00000200: fa09 5fbd fc74 9d3f 5352 da3e a7eb bd3e
00000210: b1d8 1e3f 92ea 13c0 7803 46c0 76fa c1bf
00000220: 8abf 53c0 a008 45bf 755c e540 5740 cd3e
00000230: ffa2 60c0 e7a7 dc3f e41b c13d df1e 06c0
00000240: 3355 92bf b5e9 71bf 77db 10be 0a69 24c0
00000250: 74ac 4c3d 593c cabf 1ae1 e23d c359 8d3f
00000260: 5af7 9b3e 0c0e 883f 0dcf 183f 35c0 833f
00000270: 60ca a4bc 5b18 d5be 0847 93bf edbb 3c3f
00000280: dc69 403d f9f4 21be bdae fcbf 4ba6 5a3f
00000290: 3777 0540 a3a2 19c0 ca25 61be 32be 07bf
000002a0: 3263 aabe 3e53 d1be 590d 00c0 6b92 3940
000002b0: 4222 d7be 27ee ecbe f439 b9bd f85e 6fbf
000002c0: 80e5 25bf 016b 0ac0 8944 0b3f 8ae7 0fbf
000002d0: f511 663e 86f7 99be 3f51 0040 55a3 acbf
000002e0: 27d1 0cbf 929c 18bf 960d 6dbe eba0 cbbe
000002f0: c823 4d40 5afe 1dbe d48f ecbf 0e6a 393f
00000300: 8cb5 d4bd d371 fabf bcfd 4fbf 6e62 8bbf
00000310: 451a 99bf ec6c 12c0 5089 3c3c d8b3 debf
00000320: ac64 1f3d 5c58 b33e 1c55 7b3e 8629 283d
00000330: 3a47 753f 1044 703e bafb 70bd 9446 8d3d
00000340: 7312 86bd 30cf d53f cd86 14be 35b0 243f
00000350: 82b0 c03e dcee 80bf 5d49 4140 cbf0 55c0
00000360: 476d 3a3e 75be a2bd 74c7 4f3e 033e 69c0
00000370: f9d0 2cbf 3f1e 71bf b690 91bf 56a6 613e
00000380: 5a11 d8bd 345d d2be 3e4e 3cbf 39be 5fc0
00000390: 3499 103f 2028 74c0 572a d2be f644 7cbf
000003a0: 90b1 25be e6ae 4bc0 ed9b ecbf 3b02 ba3e
000003b0: cd75 72bf 671a 10bf 72db ddbf 2047 9bbf
000003c0: 1d78 64bf 68e7 b63f 70c4 18bc 8646 b0bf
000003d0: 3cba 07c0 e456 c0bf cc9b 05bf 667e 5cbf
000003e0: 2e2b 983d b2b5 393c 485a 8abd 4ccb e33d
000003f0: 4876 b7be b069 943f fd56 603f ca0b 873e
0.09518148 0.031206671 -0.033867203 -0.019398976 -0.22023642 0.036868665 -0.08405459 0.13393319
0.04289256 0.0818692 -0.051123407 -0.14653045 -0.0035240583 -0.09721467 -0.01886243 0.107255936
-0.10853678 -0.022113748 -0.25671077 0.23412924 0.15500839 1.7147795 0.21056974 1.5759377
-0.08550969 -0.98646474 -0.09239775 -0.845347 -0.12832648 0.067775264 -0.17021273 0.05714052
-0.20998424 -0.10151551 -0.2496498 0.19020076 0.18647934 2.3076553 0.08476382 0.011020952
-0.123033926 -0.2500449 0.11066179 0.20633331 0.1956345 0.02192159 0.1399308 -0.12661709
0.0144023 -0.032027066 -0.07799819 0.23732549 0.17938426 -0.059448417 0.04324711 0.13119952
0.06793603 -0.08512379 -0.34614816 0.38799036 0.33475503 -0.030139 -0.16785799 0.08518442
-0.26754984 -0.13983162 0.07571961 -0.14583173 -0.0284459 -0.24817508 -2.4849865 0.42298558
-0.00037198942 -0.20483819 0.07162149 -0.11515828 -0.32072216 -0.6262131 0.49327764 -3.805421
-0.104995094 -0.13061056 -0.33764085 -1.571758 -3.9709136 0.06960898 -1.0397162 1.3149782
-0.38261956 -0.3917877 -0.46689388 -1.6916429 -0.044073403 -0.49310225 -0.24775995 -0.008905165
-0.24340244 -0.62408274 0.019861877 -0.03922911 -0.10439035 1.6845118 0.49704322 -0.048075624
-0.112633444 1.2369093 -0.12730859 0.570249 0.085119456 0.81764644 0.22195859 0.18655351
-1.3700501 -0.2622776 0.83123016 -0.17329343 0.8752358 0.6764862 -0.10656641 -0.76998603
-0.6540501 3.726038 -0.90604645 0.07107032 -0.06635228 -0.873445 -1.3165042 -0.6194706
-0.054452874 1.2301326 0.42640933 0.3709385 0.62049395 -2.311192 -3.0939617 -1.515456
-3.3085656 -0.76966286 7.1675363 0.4008815 -3.5099485 1.723874 0.09429148 -2.0956342
-1.1432251 -0.94497234 -0.14146219 -2.568911 0.04996915 -1.5799667 0.11078091 1.1043018
0.30462152 1.0629287 0.59690934 1.0293032 -0.020116031 -0.41620144 -1.1506052 0.7372425
0.046975955 -0.15816106 -1.9740826 0.8540999 2.0854013 -2.4005516 -0.21987072 -0.5302459
-0.33278805 -0.4088382 -2.0008147 2.8995616 -0.42018324 -0.46275446 -0.09044257 -0.93504286
-0.64803314 -2.162781 0.5440145 -0.56212676 0.22467788 -0.30071658 2.0049589 -1.3487345
-0.5500664 -0.5961391 -0.23149714 -0.39771208 3.205309 -0.15429059 -1.8481393 0.7242745
-0.1038619 -1.9565986 -0.8124654 -1.0889413 -1.1961142 -2.287898 0.011507347 -1.7398634
0.038914368 0.3502835 0.24544185 0.041055225 0.9581181 0.23463464 -0.058833815 0.06898227
-0.06546488 1.6703854 -0.14504547 0.6433137 0.37634665 -1.0072894 3.0201027 -3.3428218
0.18205748 -0.07946483 0.20290929 -3.64441 -0.67506367 -0.94186777 -1.1372287 0.22036108
-0.105501845 -0.41086733 -0.7355689 -3.4959853 0.5648377 -3.814949 -0.41047928 -0.98542726
-0.16181016 -3.18255 -1.8485085 0.36329827 -0.94711 -0.56290287 -1.7332594 -1.2131081
-0.8924578 1.428937 -0.009324178 -1.3771522 -2.1207418 -1.5026517 -0.5219085 -0.8613037
0.07430111 0.011334823 -0.06755501 0.1112276 -0.3583243 1.1594753 0.87632734 0.26376182

linear1.bias f4 [64]
00000000: 0226 953f 67ef a03f 29a5 a3c0 a41a 36c0
00000010: 2c8a 22bf 0ad0 76c0 c4ff 0140 ed50 31c0
00000020: 8d0e bc3f 4318 47c0 da0a 26c0 1345 2dc0
00000030: 4cc6 da3f a43e 773d 2e9d e33f 65ba 0dc0
00000040: cb8b 7bbf c07f 1cc0 97df 2ec0 7ad2 1ec0
00000050: 54fa e03f 2589 54c0 dbb6 083f da5d 8ebf
00000060: cdc1 8dc0 fd1e 2fc0 ed9d 38c0 90e1 55c0
00000070: 89b8 0fc0 d0d6 1ec0 467e 1cbf b526 8ebf
00000080: b27b 1fc0 9f51 1040 9709 f4bf 50ad 48c0
00000090: 8deb 4dbf 47da 9a3f 48ae 98c0 5129 72c0
000000a0: 61d0 76c0 1882 f33f cc37 9bc0 eb6e 9cbe
000000b0: 7032 c9bf 394a 7ac0 bff7 c1bf 7185 8b40
000000c0: 8cb8 7d3f 96d1 8ec0 d1b6 38c0 af25 1240
000000d0: 03e6 24c0 dfdc 70c0 afa0 39c0 5d7b 6ac0
000000e0: f02b d2bf 49f5 3ec0 1c46 8ec0 f001 e9bf
000000f0: 80f1 a3bf 2517 30c0 558c b4bf ce33 7dc0
1.1652224 1.257306 -5.113911 -2.845376 -0.63492084 -3.8564477 2.0312357 -2.7705643
1.469194 -3.1108558 -2.5944123 -2.707341 1.7091765 0.060362473 1.7782342 -2.2145016
-0.9826018 -2.4452972 -2.7323968 -2.4815965 1.7576394 -3.3208706 0.53404015 -1.1122391
-4.4299073 -2.7362664 -2.884639 -3.3418922 -2.2456381 -2.481861 -0.6113018 -1.1105562
-2.4919248 2.2549818 -1.9065427 -3.1355782 -0.80437547 1.2097863 -4.7712746 -3.7837718
-3.8564684 1.9024076 -4.850561 -0.30553374 -1.5718517 -3.9107802 -1.5153731 4.360039
0.9910972 -4.463084 -2.8861582 2.28355 -2.5765388 -3.763481 -2.9004323 -3.6637795
-1.6419659 -2.983721 -4.4460583 -1.8203716 -1.2808075 -2.7514126 -1.4105326 -3.956287

output.weight f4 [1, 64]
00000000: 670b 8c3d e4fa c93d 6b30 a7bf 38f2 b6be
00000010: 961f 6e3e 367f 173f 9b92 94bd fe1a 013f
00000020: 844c 24be 16d2 4d3f 9c38 6b3e d04c 46be
00000030: ee73 7cbe cc06 c8bd 7d17 e5bd 5fcb ca3e
00000040: ba3b 59bd 318a b13e a4fb 07bf 5543 283e
00000050: 7f48 903d b30b b73e 4ee5 c1bd 9a4b 5a3e
00000060: 0d59 a03e 2edf d7be db3a 17bf 1d09 f13d
00000070: 6ab9 ccbe 297b 98be c747 8e3d 09b1 813d
00000080: 4e89 0f3e 9363 e3bd 50b4 d63d 72ec 0a3e
00000090: 5802 f43e 851b 92bd be26 6dbf bd44 563e
000000a0: 6cdb a33e 1767 b13d 39f1 69bf 552b 87bd
000000b0: 448a d73d bb99 623e 85e0 8dbd fe0b 333e
000000c0: e56b 163e f1f5 04bf accf eebe 9014 9fbd
000000d0: cfe8 1a3f e0d1 13bf 4a04 20bf b8a8 62be
000000e0: 8a9c c73e 56f8 84be 8367 8c3e b87f f8be
000000f0: 4e7b 343e 92b9 e8be 23e6 18bf 7fe9 a73e
0.06838112 0.09862307 -1.3061651 -0.35731673 0.23254237 0.59178483 -0.07254525 0.5043181
-0.16044813 0.8039869 0.22970814 -0.19365239 -0.24653599 -0.097669214 -0.11186121 0.39608285
-0.053035475 0.34675744 -0.5311835 0.16431935 0.070450775 0.35751113 -0.094675645 0.21317902
0.3131794 -0.4216246 -0.5907418 0.11769316 -0.3998521 -0.29781464 0.06947284 0.06332595
0.14017221 -0.11102977 0.10483611 0.13566759 0.47658038 -0.07134155 -0.9263724 0.20924659
0.32003343 0.08662241 -0.913837 -0.06600062 0.10524419 0.22128956 -0.06927589 0.17485043
0.14689596 -0.51937777 -0.46642816 -0.07767594 0.6051149 -0.5774212 -0.62506545 -0.22134674
0.38986617 -0.25970715 0.27422723 -0.48534942 0.17625162 -0.4545408 -0.5972616 0.3279533
