squadro/Data/best_random_params_2.pth (torch, 15544 bytes, 3 tensors)

linear1.weight f4 [64, 50]
00000000: 587a 48bd 7c8f 013e d83d 423b d4d4 18bd
00000010: 827e ae3b d3ca 863d d46e 223d 2c89 3abd
00000020: b1a0 07be dda1 47bc ce66 243d 374e 373b
00000030: 2206 62bd c08b 0d3b 4b75 d7bd 4f1d 343f
00000040: 9c11 53bc cf73 6d39 b331 34bb 54d9 62bf
00000050: 1fb2 0cbd 9b02 a9bd 6de6 46be 8a44 38bc
00000060: a63b b1bd 245d 36bc 9dc2 c6bc ba23 c7bd
00000070: b890 d33c b0b7 74bf 6710 f1bb d6d9 653a
00000080: 39ed 37bc df57 56bd cd14 0bbe 7b92 31be
00000090: d217 2fbe 1fb1 5fbd 889a 62bd 8aa4 d8bc
000000a0: 4b4e edbc f556 3abd c83a 73bd 6262 54be
000000b0: f5f2 b2bc fc6f 483c 18b9 79bc c469 97bc
000000c0: aff6 0d3e 77b3 8ebb 0032 8aba 59a5 4ebd
000000d0: a0ed d43e fd55 453e 99cb 28b9 27df c83d
000000e0: 2084 b9bb d961 e93e 85ab ea3c 30b7 9e3f
000000f0: 60ff 97be 6a83 8e3f 6121 e63d 090f abbe
00000100: e397 963d 5b7e 34bf 0dc2 ef3d f5d2 f33e
00000110: f0ba 5cbe 76f1 8dbe 2aa7 4abf f9c9 cd3e
00000120: 00b7 4cbe 8ef3 c8bd 8f75 80bd 330c 9a3e
00000130: b806 3ebe 31f1 57bf b76b f73e 8916 01bf
00000140: 00e2 173c 2926 f4bb ff0c 1a3e 81ef 13bf
00000150: 3bfd c9bd 8724 7ebd edf7 a6be 88a2 9e3e
00000160: 4bf0 24be 25f4 48be b42f d5be 9863 4e3d
00000170: b80a bdbd ab6d 8dbe 52ec eebe 2f21 bcbe
00000180: 1953 45be e114 51be 620c e5bd b9c4 94be
00000190: 1edc ac3d 7002 303f ce67 803e c8ca 0b3f
000001a0: 56fe 64bd 1a8e 153f db03 063e 2857 05bd
000001b0: 9849 f0bb 12af 28bc 6709 d03c 01db 92be
000001c0: 3db9 e3be d475 72bf 98f5 7d3c 612a 8abe
000001d0: 4694 b0bc 9df8 4abf 408c 0dbe 6dbd edbe
000001e0: 3373 bebd 68a1 473f dbe0 283e d5ff bf3d
000001f0: f98b adbd 68db 67bf 3301 07be 13ab 8ebf
00000200: 0742 923e 1900 01bf 722e 083f 799d 23be
00000210: 7a99 5f3e 11eb 49bf a105 38bf 2465 50be
00000220: c992 27bf c921 a53c bcaf 063f 7a5a 05be
00000230: 1c30 52bf 46db 7abe 50a8 2cbd 942e 00bf
00000240: 0eb3 b9be f97c efbe fc84 25be f6bf 20bf
00000250: 6043 5e3d 7893 8fbf 28c9 253d 9d5c b23c
00000260: ae2d 35be e565 04be 69ba 6fbe ef21 95bd
00000270: 80ac e9ba 04db abbd d009 ea3c 7d1e bbbd
00000280: 7c77 9d3c e653 89be ecbb a13d 478f 98bc
00000290: 2b9a 20bd e4bb 9cb9 0e30 10bb afd3 0fbe
000002a0: 0afd 30be 0ec9 d73d ae25 623e ddeb ce3e
000002b0: e832 3c3d d9c8 453f c392 f7bd 9264 84bf
000002c0: 93d7 983d e548 4ebf 5494 b93d 1685 113e
000002d0: f7b7 90be b623 c63d 8f9a b5bc 9004 a13d
000002e0: 4596 ca3d dd0e 453e 7f55 253e 2e21 11be
000002f0: 5177 033e bdb0 87bc 66f0 f33d d771 a23d
00000300: 813d 0c3e ac56 053e ddfa 303e 1b47 0d3e
00000310: 43c3 a83e 1dc1 e33d a2b2 e1bd aa45 dc3c
00000320: 6a59 f6bd fc4e ee3e 7efe bd3e 52aa 5f3e
00000330: 9f03 a43e f194 033f 88e0 ee3c 467e 493f
00000340: 2281 5cbe 089f 3f3e 2ce3 6b3d b753 c03c
00000350: 87fc 27bf 9a9d 84bf 811c 9d3f 41c8 abbe
00000360: 1b15 03be 50d6 2dbf 12b4 21be 8855 fbbd
00000370: 4541 00bf 97b2 833f 1dc1 083e b637 3e3e
00000380: dff3 093e a46c 3abf df14 06bd 8024 7ebf
00000390: 9429 ee3e ddb8 f9be 9642 f53e 3cda 9fbe
000003a0: 1044 8bbc 0c52 1cbf c03e 89be c6a6 12be
000003b0: 6a5e 0bbf 3b75 583d e190 903e 1219 15be
000003c0: 5559 39bf 29ec 83bd c001 5cbc c575 e2be
000003d0: 6309 c9be bc07 b8be faef b0bc 9134 2abf
000003e0: f06c 4ebc 00b0 8abf 40a4 3abd 7142 883e
000003f0: 5aa2 2c3f 0a0c c23e 7123 513f 80c0 8c3e
-0.0489448 0.12652391 0.0029638913 -0.037312344 0.0053251395 0.065816544 0.039656475 -0.045540974
-0.13244893 -0.012184587 0.040137105 0.0027970204 -0.05518163 0.002159819 -0.10520419 0.7035722
-0.012882616 0.00022645223 -0.0027495443 -0.88612866 -0.034349557 -0.0825245 -0.19423838 -0.01124681
-0.08653955 -0.011130605 -0.02426272 -0.09723611 0.025825843 -0.95592785 -0.0073566916 0.0008768117
-0.011225992 -0.052329894 -0.13582154 -0.17341034 -0.1709893 -0.054612275 -0.055323154 -0.026445646
-0.028967997 -0.045493085 -0.05938223 -0.20740655 -0.021844367 0.01223373 -0.015241884 -0.01848305
0.13863634 -0.00435489 -0.0010543466 -0.050450657 0.41587543 0.19271083 -0.00016097575 0.09808188
-0.0056615025 0.45582464 0.02864624 1.2399654 -0.29687023 1.1133854 0.11236835 -0.33409908
0.07353189 -0.70505303 0.11706934 0.47621885 -0.21555686 -0.27723283 -0.7916132 0.40193155
-0.19991684 -0.09812079 -0.062724225 0.30087432 -0.1855725 -0.84352404 0.48324367 -0.5042501
0.009270191 -0.007450838 0.1504402 -0.5778733 -0.09862753 -0.062046554 -0.32611027 0.30983377
-0.1610729 -0.19624384 -0.41637957 0.05038795 -0.0923056 -0.27622733 -0.46664673 -0.36744067
-0.1926998 -0.20418121 -0.111840025 -0.29056337 0.084404215 0.6875372 0.25079197 0.54606295
-0.055906616 0.58419955 0.13087408 -0.03255382 -0.007332992 -0.010295646 0.025395108 -0.28682712
-0.44477263 -0.9471104 0.015500449 -0.26985458 -0.021555077 -0.79285604 -0.13823032 -0.46433583
-0.09299316 0.7798066 0.16492026 0.09374968 -0.08473963 -0.9056916 -0.13184051 -1.1145958
0.28566 -0.50390774 0.5319587 -0.1597804 0.2183589 -0.7887431 -0.7188359 -0.20351082
-0.6545835 0.020157712 0.526119 -0.13022795 -0.8210466 -0.24497709 -0.042152703 -0.5007107
-0.3626942 -0.46775034 -0.16164011 -0.6279291 0.054263473 -1.1216879 0.04047504 0.021772677
-0.17693207 -0.12929495 -0.23410954 -0.07281863 -0.0017827898 -0.08391383 0.028569132 -0.091366746
0.019222014 -0.26821822 0.078971714 -0.018623007 -0.039209526 -0.00029894628 -0.00220013 -0.14045595
-0.17284027 0.10536395 0.22084686 0.40414324 0.045946985 0.77259594 -0.120885395 -1.0343192
0.074629925 -0.8057998 0.090614945 0.14210925 -0.28265354 0.0967478 -0.022168426 0.07862198
0.09891943 0.19243951 0.16145895 -0.14172813 0.12838484 -0.016563768 0.11911087 0.079318695
0.13695337 0.13021344 0.17283197 0.13796656 0.32961473 0.11120818 -0.110204 0.026888687
-0.12028773 0.46544635 0.37108225 0.21842316 0.32034013 0.5139914 0.0291598 0.787083
-0.21533635 0.1871301 0.057589695 0.023477418 -0.656197 -1.0360596 1.2274324 -0.3355122
-0.1280102 -0.6790514 -0.15791348 -0.12272173 -0.50099593 1.0288876 0.13354917 0.1857594
0.13471936 -0.7282202 -0.032734748 -0.99274445 0.46516097 -0.48773852 0.47902364 -0.31221187
-0.017000228 -0.61062694 -0.26805687 -0.14321432 -0.5444094 0.052846175 0.28235534 -0.14560345
-0.72401935 -0.06441528 -0.013428152 -0.44230476 -0.39264974 -0.359434 -0.021598805 -0.6648646
-0.012599215 -1.0834961 -0.045566797 0.2661319 0.6743523 0.3789981 0.81694704 0.27490616

linear1.bias f4 [64]
00000000: 3e8e 6a3f 8b45 9bbf f2e1 a1bf 345c ffbd
00000010: 2f9c 64bf de01 8cbf 5822 633f 7884 98be
00000020: 7d50 14be 40d6 593f 366b 4ebe 7780 6f3f
00000030: 3815 37bf b761 293f 0ddc 063e 080c a1be
00000040: 04c1 2a3f 6ed3 7f3f 3344 1d3f 7694 443f
00000050: 984c 693f 2e7e 8ebf b008 d7be 747a 2fbf
00000060: 3b60 84bf c55c 84bf 4859 3a3f 31c6 c03d
00000070: c3e2 0c3f 70fe 70be 8d33 9abf 1a1e 463f
00000080: 1230 8cbf 065d 6abd ece8 b9bf 8982 703f
00000090: 321f f5be 1e75 9fbd 8100 4a3f 5d6c bc3d
000000a0: 0f25 82bf 3f10 8cbf e791 183f d1cf 853e
000000b0: b8e5 85be 1e9d 71bf 1a71 af3d dce0 92bf
000000c0: edf7 3a3e 3331 81bf 261e 3cbf 0ac8 ab3f
000000d0: 4590 0cbf 46ea 84bf 2a8a 453c 6344 10bf
000000e0: 3229 203e de21 843f eb3a b33e f81c 22bf
000000f0: 6d56 8b3f 9f40 67be 6036 febd 5807 10be
0.91623294 -1.2130598 -1.2647078 -0.12468758 -0.8930082 -1.093807 0.8872428 -0.29788566
-0.14483829 0.85092545 -0.20158085 0.93555397 -0.7151675 0.66164726 0.1316988 -0.31454492
0.6670077 0.9993199 0.6143219 0.76789033 0.911325 -1.1132257 -0.41998816 -0.68546224
-1.0341867 -1.0340811 0.7279248 0.09412802 0.5503351 -0.2353456 -1.2046982 0.7738968
-1.095217 -0.05721762 -1.4524207 0.9394918 -0.47875363 -0.0778601 0.7890702 0.09200356
-1.0167559 -1.0942458 0.5959763 0.26135114 -0.26151824 -0.94380367 0.08566494 -1.1474872
0.18258639 -1.009314 -0.734835 1.3420422 -0.5490764 -1.0383995 0.012056867 -0.5635435
0.15640715 1.0322835 0.35005888 -0.6332545 1.088575 -0.22583245 -0.12412715 -0.14065301

output.weight f4 [1, 64]
00000000: 21f9 8a3e 7362 883f 6ff6 fcbf 9a3d 883e
00000010: 7e98 d4bf 1346 a43f 3375 903e edbb c23e
00000020: d47e 3b3e 7e59 d0be b587 813e 7315 b4be
00000030: 2bba 493f 15a2 2bbf 24b0 d1be efef 18bf
00000040: bcb2 af3e 6930 e3be 5610 7f3e bf76 1dbe
00000050: 3fdd fcbe fae8 b73f eb60 62be 68f5 df3e
00000060: 829c 503f cc73 d8bf 09c1 16be d6e3 adbe
00000070: 8551 0e3f 9fed 44be 28f9 d03f 7cde a9be
00000080: b80b d6bf c218 903e dd73 e4bf a272 67be
00000090: a82b e2bf ecfe d63f ce90 59be 8104 a13e
000000a0: 9f21 803f 98d4 cdbf 3e25 ebbd 3de0 e7bd
000000b0: 9bb5 ff3e 67f0 943e 01e2 793e 386d dcbf
000000c0: f622 6e3f 82f4 b03f 0e67 11c0 05ac 1a3f
000000d0: 1ef2 edbf 53ab 1a3f 3097 df3e 5e0c e0bf
000000e0: be40 613e 5ae6 8abe b80f 97be bbf5 bcbf
000000f0: 7816 a83e 7edf e1be 4916 18bf f9db e93e
0.27143195 1.0655044 -1.9762706 0.26609498 -1.6609037 1.2833885 0.28214416 0.38034
0.183101 -0.40693277 0.2529885 -0.35172614 0.78799695 -0.6704419 -0.40954697 -0.5974111
0.3431605 -0.44372872 0.24908575 -0.1537733 -0.49387547 1.4367974 -0.22107284 0.43741918
0.8148881 -1.6910338 -0.14722075 -0.33962888 0.5559314 -0.1923127 1.6326036 -0.33177555
-1.6722326 0.2814389 -1.7847859 -0.22602323 -1.7669573 1.6796546 -0.21246645 0.3144875
1.001026 -1.6080503 -0.11481713 -0.11322067 0.4994324 0.29089662 0.2440262 -1.7220831
0.93022096 1.3824618 -2.271915 0.6041873 -1.8589513 0.6041767 0.43670034 -1.7503774
0.21997353 -0.2712887 -0.2950418 -1.4762491 0.32829642 -0.44115824 -0.59409004 0.45675638
