squadro/Data/best_random_params_29.pth (torch, 15552 bytes, 3 tensors)

linear1.weight f4 [64, 50]
00000000: da17 91bd 3276 22bd 33f7 8dbc 42db 03bd
00000010: 3c57 d93d f941 dd3a c8ed 9f3d eb34 7bbd
00000020: 50d7 ebbc d8c8 ac3d b068 0d3e 4a13 f03d
00000030: 32ed 96bc 1af6 a63d 0976 c8bc 5d8b 153c
00000040: f402 24bf f347 2b3c 3f4f 053e 5fbf 1bbb
00000050: a36f 233d 0ddd 58bd 54ca c53c 4252 ad3d
00000060: f49e 27bd c8b4 213e d382 223a 453c eb3d
00000070: f890 bebc 8056 41bc a78a 813d 6c36 a7bb
00000080: d8b1 88bf a392 2b3d cd9e fc3d 889c 1f3e
00000090: 785e e63e b37b 103e ae22 d43d 978b 183e
000000a0: 5886 773d 7ffa 8e3d 06d6 0bbd 27c5 0d3d
000000b0: 14d1 2d3e 8654 b23b 7b14 223e f29e f2ba
000000c0: 346b af3d 51ac 9b3c 0e09 a73d 02ce 803e
000000d0: 6722 0a3e 29ee 0c3e d444 fb3e fc1c 843e
000000e0: 2869 a73c fe24 4e3e 9c33 f73d 58b0 f8bd
000000f0: 7bd1 57be 4408 86be 36e7 da3d b2b0 28bf
00000100: 3520 f6bd 5c1e 88bc cb8a 10be 86c9 b93d
00000110: 2c37 5ebf 38ae c0bc 6da7 a3bc 8797 903e
00000120: 2172 e8bd 89ca 28be ae66 e93d c371 583d
00000130: 98ac 8abd 67f1 c2be 7539 cd3d 8b4e 223e
00000140: 2cdc 6fbf cef2 94bb 3ba7 31bf 8fb2 1e3a
00000150: 6f89 92be ec64 a23e b2e3 32be e633 bcbe
00000160: 8980 713e 5056 a4be 467d 1ebe 0b61 db3b
00000170: 3c94 59bd 5da9 8cbe 1067 6dbe 7bd0 95be
00000180: f007 6ebe d38c 21be a018 a5bb 9db0 0cbe
00000190: 003e 2fbd 1528 b63e 38a8 e63b 8f48 2b3e
000001a0: c61b 26bd 7aca 873e 3420 a7bd 743f b23c
000001b0: 7487 77bc cea8 a63c ee0a 80be c601 293d
000001c0: 2a67 913e eae0 dbbd 7e0d d73d c720 febc
000001d0: d661 42be 190a 15be c7c9 fbbd 8f2f 12bd
000001e0: 03cc cabe 4402 90bd 021e d3bd 22ba d6bc
000001f0: 3051 c4bc 2ebb c5bb 9c51 e9bd 404a bdbe
00000200: c297 03bc f92a 323d 0e02 87be 603c 3bbc
00000210: 6b37 4cbd 07cc 0a3e fc26 3cbf 8ccc 3abf
00000220: 0ec5 28bd 6262 91bf 0df1 64bf 5ae5 39be
00000230: de58 8ebc f986 543e 60e7 69bd c04f f63c
00000240: 56eb 38be e0e4 ddbd 733e e7bd f39f 58bd
00000250: 2969 103e 5600 90be f628 e63d 7c2b ad3d
00000260: 8029 e13e 2c4e fb3d fe65 d6bd 2bd7 223e
00000270: 84f8 d4bd 8572 4fbe 9832 283d 7b1c bbbe
00000280: c889 39be 9d1d 09bd 49a3 4b3d faf0 2cbe
00000290: 37ff 91be ef87 d33e 6843 95bf 2f2e eebd
000002a0: 228f 04be 5292 be3d 5f1a 48bd 0fd1 0b3e
000002b0: a4ef bdbd 58d0 7d3e aeff cfbd 6612 0abe
000002c0: f0d3 fdbd 21aa 94bd fe1b be3e f8d9 b4bc
000002d0: 7e38 27bf 7499 e4bd 8c34 43bf 3469 49bd
000002e0: 5099 0bbe 4450 77bc 329d 22be 8970 f6bc
000002f0: 9686 39bd fd78 83be 3cb6 b83c c5aa 48be
00000300: e0c1 51bc 6c8e d8bd 265f aabe 6d3d f3bd
00000310: 7849 6ebe 6fb0 33be 9caa dfbd 4afe f4bc
00000320: be57 b1bd 783a 693e 444e 45bd 1b1a ac3e
00000330: f4ba ffbd 4065 9f3e a4a1 febd 52e9 0d3d
00000340: fc74 363e 4a27 0bbe 4d45 dbbd e453 1dbe
00000350: c41e 823e 5655 53be c76c 38be f354 843e
00000360: 6432 a93e 2cb2 383f d97c 5cbe 69f9 d43d
00000370: 3eaf fc3d 334a 51bc a6fe d1bc 32e2 37be
00000380: 04ee bebd 18b0 64be 2b4b e4bd a2cf d7be
00000390: f2b7 393b e2de 4a3e 03ba a7be 4483 82bd
000003a0: 7f62 8cbe 51ba f93b 31ef 6bbe 5fc2 abbd
000003b0: d3ef 96bd bad4 89be 77a6 c2be 0ada 96be
000003c0: 5648 44bd 6040 1ebe 0088 ebb9 d7c3 7ebe
000003d0: 5163 afbe ad49 abbe ecec 9cbe 26ed 8cbe
000003e0: 68c2 2abd 4931 28bd c140 c2bd 69d6 0a3b
000003f0: 0cc0 a7bd 6031 eb39 b11b 8b3b 05f3 bdbb
-0.070846274 -0.0396635 -0.017329788 -0.032191522 0.10612342 0.0016880623 0.07809025 -0.061329763
-0.028789192 0.084367454 0.13809466 0.11722429 -0.01842365 0.08152409 -0.024470346 0.009127465
-0.64067006 0.010454166 0.13018511 -0.002376519 0.039901387 -0.052945185 0.02414433 0.08462955
-0.040923074 0.15791619 0.0006199304 0.11486105 -0.023262486 -0.011800408 0.06325274 -0.005102923
-1.0679274 0.04188789 0.12334976 0.15587056 0.4499395 0.14109688 0.10358177 0.14897
0.060430855 0.06981372 -0.034139656 0.034611847 0.16974288 0.005442205 0.15828125 -0.0018510504
0.08565369 0.019003065 0.08156024 0.2515717 0.13489686 0.13762726 0.4907595 0.25803363
0.020435885 0.20131299 0.120703906 -0.1214301 -0.21076004 -0.2617818 0.10688631 -0.65894616
-0.12017862 -0.016616039 -0.14115445 0.09071641 -0.86802936 -0.023520574 -0.019977296 0.28240606
-0.11349893 -0.16483511 0.11396538 0.052842867 -0.06771201 -0.380748 0.10020725 0.15850274
-0.9369533 -0.004545546 -0.693958 0.0006053829 -0.2862048 0.31717622 -0.17469671 -0.36758345
0.23584189 -0.320971 -0.15477476 0.006694918 -0.053119883 -0.27472964 -0.23183846 -0.2926062
-0.23245215 -0.15776376 -0.005038336 -0.13739248 -0.042783737 0.35577455 0.007039096 0.16726898
-0.04055383 0.26521665 -0.08160439 0.021758772 -0.015107978 0.020344164 -0.2500834 0.041261457
0.2839902 -0.10736258 0.1050062 -0.031021489 -0.18982634 -0.14554633 -0.12294345 -0.035689887
-0.39608774 -0.07031682 -0.10308458 -0.026211802 -0.023964494 -0.0060342764 -0.11392519 -0.3697071
-0.008031787 0.043498013 -0.26368755 -0.011427969 -0.04985754 0.13554393 -0.73496985 -0.72968364
-0.04120355 -1.1358149 -0.89430314 -0.18153897 -0.01737636 0.20754613 -0.057105422 0.030067325
-0.18058524 -0.1083467 -0.11291208 -0.052886914 0.14102615 -0.28125256 0.112382814 0.084555596
0.43976974 0.122707695 -0.10468672 0.15902393 -0.10398963 -0.2025853 0.041063875 -0.36545166
-0.18118966 -0.033475507 0.049716268 -0.168888 -0.28515026 0.41314647 -1.1661196 -0.116299026
-0.12945226 0.09305252 -0.048853274 0.13653968 -0.092742234 0.24786508 -0.10156189 -0.13483581
-0.123939395 -0.07259012 0.3713073 -0.022076592 -0.65320575 -0.11162081 -0.76252055 -0.049172595
-0.13632703 -0.01509482 -0.15880278 -0.030082958 -0.045294367 -0.25678244 0.022547834 -0.19596393
-0.012802571 -0.1057404 -0.33275717 -0.118769504 -0.23270214 -0.17547773 -0.10921213 -0.02990641
-0.086593136 0.2277621 -0.048170343 0.33613667 -0.1248683 0.31131935 -0.12433174 0.03464634
0.17818063 -0.13589206 -0.107065775 -0.15364033 0.25414097 -0.20638022 -0.18010245 0.2584606
0.33046257 0.7214687 -0.21532 0.10399134 0.12338112 -0.012774038 -0.025634121 -0.1795738
-0.09322742 -0.223328 -0.1114715 -0.421506 0.00283384 0.19811586 -0.32759103 -0.06372693
-0.27418897 0.0076210876 -0.23040463 -0.08386683 -0.073699616 -0.2692011 -0.38017628 -0.29463226
-0.047920547 -0.15454245 -0.0004492402 -0.24879394 -0.3425546 -0.33454648 -0.30649507 -0.2752468
-0.041689306 -0.041062627 -0.09485007 0.0021184927 -0.08190927 0.0004485948 0.0042452444 -0.0057967925

linear1.bias f4 [64]
00000000: 6b31 193f f9b3 39bf 4296 953e 7bde 54bf
00000010: 0717 123f 9cec 263f 1eb1 e5be 81bb 05bd
00000020: 4d6e e2bd f08e 9abe 127d 56bf 807c b0be
00000030: 30f4 66bc 37c1 a63d 7ab6 623e 1212 2c3e
00000040: 524d b9be d2f7 2d3f 569b f13e d09b 21be
00000050: 9112 19bf 86cf b43e 688a 313f a864 803f
00000060: 0056 0ebf 5613 d63c ebdb 21bf 96d1 cb3e
00000070: 5fd8 70bc 3c37 2bbf 12b0 b73d c6c1 5d3e
00000080: a1e3 303f 62fe 11bf 11af 3abf 7ac4 8d3e
00000090: 0bb0 173f 7821 753e 1742 883e a465 b93d
000000a0: 3d70 b03d 0012 9d3d 9c85 713e 9ecf 54bf
000000b0: c960 b7be 4d84 1fbf fb0a 793f 4859 913e
000000c0: ed85 0c3f 6c7a 73be 5934 a3be fbfc 4b3e
000000d0: 4081 6d3e 7088 59bf 215e 633e a744 c4be
000000e0: 842d a1be 4df5 f33e 8aa3 3f3f da41 873f
000000f0: 17db 223f a7f5 4b3f 506c 02be 7376 163e
0.5984103 -0.7254024 0.292162 -0.8315198 0.57066387 0.6520479 -0.44861692 -0.03264952
-0.110561945 -0.30187178 -0.8378459 -0.34469986 -0.014096305 0.081423216 0.22139922 0.16803768
-0.36191803 0.6795627 0.47188824 -0.15782094 -0.59793955 0.35314578 0.69351816 1.0030718
-0.55599976 0.026132267 -0.63226193 0.3980834 -0.014700024 -0.66881156 0.089691296 0.2165595
0.69097334 -0.5702878 -0.7292338 0.27688962 0.59252995 0.23938549 0.26612923 0.090525895
0.08615158 0.07669449 0.23586124 -0.831293 -0.3581603 -0.6231125 0.9728238 0.2838843
0.54891855 -0.23777169 -0.31875876 0.19920723 0.23193836 -0.8497381 0.22203876 -0.38333628
-0.31480038 0.47648087 0.74858916 1.0566971 0.63615555 0.7967171 -0.1273663 0.14693622

output.weight f4 [1, 64]
00000000: ae66 c63e 9c37 693f 17cd b1bf 8eeb 6d3f
00000010: d2d2 f8be 8958 f33e 1332 2f3f 96c6 c13e
00000020: 8b18 443f 0b6b b33e 196f d7bf b3cc c5bf
00000030: c398 9d3e 549b bfbe 5a2b babe 7e95 0f3e
00000040: a4e9 d23e 12ea 123f 8bb7 8bbe ad43 04bf
00000050: e1f1 663f ae5a 66be d9ab b8be 2f56 3b3f
00000060: e124 1f3f be33 83be 43c9 cf3e 08c8 4e3f
00000070: ecd9 613e d87f d83e 61bf 40be be3b 9b3e
00000080: b287 0cbf 7e5f 0c3f 2cfd 493f 7fcb 8abf
00000090: 6a7f 17bf 9a02 aabf b12c 82be 7c2c 6c3f
000000a0: 1e0c 433e 50de 9a3e 90a4 7b3f 8427 9a3f
000000b0: ef98 933f 2c8e 913f 4f6c 153f aef2 1fbe
000000c0: d0ba 48bf bbb2 4a3f 67d1 0d3f b7b3 c5be
000000d0: 1968 493f a1fa a13f 56bf a33e 5486 b23f
000000e0: 7893 493f 54ee 7d3e 93d0 a2be e3b9 033f
000000f0: b3fc 6dbf a58c 02bf bc78 03bf 6f0f 00be
0.38750213 0.9110048 -1.3890713 0.9293755 -0.48598343 0.47528484 0.6843578 0.37846822
0.7659995 0.35042605 -1.6830779 -1.5453094 0.3078061 -0.37423193 -0.363612 0.1402187
0.4119388 0.5738841 -0.2728847 -0.51665765 0.9021283 -0.22495529 -0.3606861 0.7317838
0.6216565 -0.25625414 0.40583238 0.80773973 0.22055787 0.42285037 -0.18823005 0.30319017
-0.54894555 0.5483321 0.78901935 -1.0843352 -0.59178793 -1.3282044 -0.25424722 0.9225538
0.19047591 0.30247736 0.9829798 1.2043309 1.1531047 1.1371512 0.5836839 -0.15619919
-0.78410053 0.7917897 0.5539765 -0.38613674 0.78674465 1.2654611 0.31981915 1.3947244
0.78740644 0.24797946 -0.31799755 0.51455516 -0.92963713 -0.50995857 -0.513561 -0.12505887
