squadro/Data/best_params_2.pth (torch, 15488 bytes, 3 tensors)

linear1.weight f4 [64, 50]
-0.0489448 0.011473207 0.009381367 -0.020607073 0.0038927177 -0.004583973 0.039656475 -0.0021075876
-0.03276358 -0.011932335 -0.006689573 -5.1836156e-05 -0.008755746 -0.048498757 0.023880716 0.5669113
-0.010563758 -0.03288878 0.0035020409 -0.74683815 0.08458517 -0.005851969 -0.18921019 -0.025915433
-0.08653955 -0.03247464 -0.016565746 -0.094219446 0.041120607 -0.8681068 0.030991618 0.004125616
-0.02522592 -0.044233307 -0.14033076 -0.03339081 -0.13925345 -0.010297938 -0.083674036 0.032703295
-0.027593061 -0.018424794 -0.05938223 -0.17325707 -0.003546925 0.0042644595 -0.01897183 -0.019790439
0.13863634 0.0025503056 -0.0010543466 0.13858674 0.4645122 0.21096958 0.2015827 -0.024758434
-0.0056615025 0.5954048 0.028277898 1.2808533 -0.046893273 1.0530741 0.01843741 -0.71363336
-0.022855535 -0.853434 -0.15363665 0.05977419 -0.1518562 -0.18502755 -0.672411 0.4586265
-0.1377754 0.02012331 -0.062724225 0.06493016 -0.30926764 -1.0358592 0.50511426 -0.46039078
0.25239474 -0.004782339 0.077407606 -0.7242461 -0.2023563 -0.05389943 -0.4607615 0.37834492
-0.04398407 -0.15678605 -0.58268416 0.073176995 -0.0923056 -0.4148043 -0.43214577 -0.41327146
0.0961754 -0.22706388 -0.111840025 -0.11225189 0.084404215 0.39311665 0.28543934 0.62557596
-0.050940588 0.3107921 0.13087408 -0.08113952 -0.14402205 0.0010312418 0.10511031 -0.0827699
-0.3475699 -0.60321885 -0.13360165 -0.22219765 0.08338101 -0.45297104 0.08035666 -0.29782075
-0.1070039 0.5443153 0.05868335 0.08839952 -0.08473963 -0.3386713 -0.011444705 -0.9144541
0.32033622 -0.48151988 0.28735197 -0.018275984 0.102823004 -0.6474062 -0.6501889 -0.24846968
-0.48471448 -0.12728281 0.40843987 -0.33627397 -0.6016726 -0.20825158 -0.042152703 -0.36989275
-0.41160884 -0.46026 -0.2622448 -0.44172406 0.054263473 -0.5220678 0.04047504 -0.034360424
-0.16697277 -0.098317586 -0.33856213 -0.03554936 -0.0017827898 -0.052934803 0.011697003 0.022045251
0.071904406 -0.24978156 0.05432514 -0.015238715 0.09736313 -0.06187358 -0.1839773 -0.14422148
-0.24674161 0.016817551 -0.008898572 0.26847124 0.0289506 0.62303007 -0.120885395 -0.7668623
0.050885383 -0.303323 -0.016212132 0.07243034 -0.18655851 0.06034338 -0.098637834 0.019902544
-0.030950353 0.1012746 0.085806355 0.031086924 -0.13992113 -0.13469729 0.030127339 0.0042677536
0.13695337 0.108763754 0.27768427 0.106702074 0.34226266 0.053167623 -0.110204 -0.0034206037
-0.12028773 0.2516144 0.4061586 0.2981626 0.32589048 0.2406955 0.0291598 0.8078453
-0.15561262 0.2193209 0.32646555 -0.024012005 -0.40968114 -0.6928335 1.0414991 -0.2638954
-0.067594856 -0.25559178 -0.048717108 -0.11224539 -0.5793716 0.79789865 -0.09239046 0.14820664
0.13471936 -0.2076179 -0.040901814 -0.81024957 0.50004476 -0.46569243 0.21587132 -0.18787096
-0.06479253 -0.46953595 -0.20003025 -0.18787752 -0.3749114 -0.12942342 0.1645809 -0.11562535
-0.5179355 -0.028099807 -0.013428152 -0.31208834 -0.3996292 -0.3524156 -0.16091889 -0.47924528
-0.012599215 -0.48201022 -0.045566797 0.5620475 0.58644426 0.29681718 0.81615734 0.045021385
00000000: 587a 48bd 1efa 3b3c 4eb4 193c 2ad0 a8bc
00000010: f71c 7f3b 2735 96bb d46e 223d 741f 0abb
00000020: 1b33 06bd d77f 43bc 3534 dbbb a66a 59b8
00000030: 4374 0fbc a2a6 46bd 7ea1 c33c 1921 113f
00000040: 9d13 2dbc 63b6 06bd 7f82 653b c930 3fbf
00000050: fd3a ad3d e0c1 bfbb 51c0 41be 9a4c d4bc
00000060: a63b b1bd 2104 05bd e3b4 87bc 20f6 c0bd
00000070: 156e 283d 3f3c 5ebf 22e2 fd3c 2d30 873b
00000080: 97a6 cebc fc2d 35bd deb2 0fbe cdc4 08bd
00000090: 7598 0ebe afb8 28bc 4b5d abbd e4f3 053d
000000a0: d80a e2bc 98ef 96bc c83a 73bd 4d6a 31be
000000b0: 8773 68bb e1bc 8b3b d06a 9bbc 8f1f a2bc
000000c0: aff6 0d3e 0723 273b 0032 8aba afe9 0d3e
000000d0: 8bd4 ed3e 6908 583e b26b 4e3e 33d2 cabc
000000e0: 2084 b9bb 736c 183f 0da7 e73c 00f3 a33f
000000f0: 2913 40bd 22cb 863f 0d0a 973c adb0 36bf
00000100: 883b bbbc a77a 5abf ed52 1dbe c8d5 743d
00000110: 3180 1bbe dd77 3dbe 2123 2cbf 18d1 ea3e
00000120: ff14 0dbe a4d9 a43c 8f75 80bd 1bfa 843d
00000130: 5458 9ebe 0997 84bf 2b4f 013f 57b8 ebbe
00000140: e239 813e 2bb5 9cbb e187 9e3d 3168 39bf
00000150: 7d36 4fbe a6c5 5cbd eee8 ebbe 6db6 c13e
00000160: a428 34bd 868c 20be ca2a 15bf d2dd 953d
00000170: b80a bdbd 3b61 d4be 3642 ddbe 5198 d3be
00000180: 9cf7 c43d 6f83 68be 620c e5bd 52e4 e5bd
00000190: 1edc ac3d 9646 c93e 1b25 923e bf25 203f
000001a0: 14a7 50bd 2420 9f3e db03 063e 7a2c a6bd
000001b0: 847a 13be bc2a 873a 1344 d73d 4483 a9bd
000001c0: aff4 b1be 8d6c 1abf dfce 08be c887 63be
000001d0: aac3 aa3d d2eb e7be 0892 a43d f67b 98be
000001e0: dc24 dbbd 3f58 0b3f f45d 703d cf0a b53d
000001f0: f98b adbd 5366 adbe 9282 3bbc aa19 6abf
00000200: 1c03 a43e c689 f6be cc1f 933e 84b7 95bc
00000210: de94 d23d 6abc 25bf c872 26bf d66e 7ebe
00000220: 7f2c f8be 6d56 02be 081f d13e 1a2c acbe
00000230: 3707 1abf e73f 55be 50a8 2cbd 9562 bdbe
00000240: 65be d2be 33a7 ebbe f344 86be a829 e2be
00000250: 6043 5e3d 3ca6 05bf 28c9 253d 84bd 0cbd
00000260: e9fa 2abe bb5a c9bd 0458 adbe 359c 11bd
00000270: 80ac e9ba 2ad2 58bd c9a4 3f3c 3e98 b43c
00000280: 9e42 933d bdc6 7fbe 0a84 5e3d ceab 79bc
00000290: 5266 c73d 276f 7dbd 8c64 3cbe ccae 13be
000002a0: d5a9 7cbe f6c4 893c 51cb 11bc 1075 893e
000002b0: cf29 ed3c e67e 1f3f c392 f7bd 1651 44bf
000002c0: 316d 503d 274d 9bbe 4ecf 84bc 5c56 943d
000002d0: 3209 3fbe 9f2a 773d a202 cabd a90a a33c
000002e0: 988b fdbc 0f69 cf3d 3ebb af3d 01aa fe3c
000002f0: 7c47 0fbe 16ee 09be 9ccd f63c 83d8 8b3b
00000300: 813d 0c3e 88bf de3d a22c 8e3e 9e86 da3d
00000310: 0d3d af3e 4bc6 593d a2b2 e1bd 352c 60bb
00000320: 6a59 f6bd 9ad3 803e 05f4 cf3e c5a8 983e
00000330: 1edb a63e e278 763e 88e0 ee3c f3ce 4e3f
00000340: ea58 1fbe a895 603e 7e26 a73e d3b4 c4bc
00000350: bac1 d1be 895d 31bf d84f 853f 4c1d 87be
00000360: 2c6f 8abd eddc 82be 978b 47bd e9e0 e5bd
00000370: b251 14bf 1643 4c3f 3637 bdbd 7bc3 173e
00000380: dff3 093e c999 54be a988 27bd 846c 4fbf
00000390: ef02 003f 3d6f eebe 5f0d 5d3e 3f61 40be
000003a0: f2b1 84bd 0467 f0be bbd4 4cbe f762 40be
000003b0: 63f4 bfbe 9387 04be e587 283e fccc ecbd
000003c0: 6c97 04bf 9131 e6bc c001 5cbc 0bca 9fbe
000003d0: 339c ccbe d16f b4be ecc7 24be a35f f5be
000003e0: f06c 4ebc 0bca f6be 40a4 3abd 58e2 0f3f
000003f0: 3621 163f 6cf8 973e b0ef 503f 5868 383d

linear1.bias f4 [64]
0.8012182 -0.4336836 -0.8474827 0.10596836 -0.49320567 -0.38561141 0.5954263 -0.2505671
0.005335652 0.7260183 -0.29185712 0.94672275 -0.722812 0.6162904 0.14655821 -0.18489684
0.47860494 0.5312727 0.41706878 0.22049725 0.8534098 -0.7236387 -0.37992966 -0.9330826
-0.89403725 -0.74087805 0.5394286 0.14241564 0.4705385 -0.08043945 -1.0706156 0.8237733
-0.35787222 -0.15922943 -0.9087377 0.5724582 -0.34017533 -0.030506784 0.70581657 0.26837617
-0.8823688 -0.6918779 0.50039035 0.31684488 -0.21528883 -0.79273003 -0.15236461 -0.7250073
0.025413753 -0.43768254 -0.22681054 1.0527477 -0.61837167 -0.88262194 -0.1453275 -0.3334935
0.06615842 0.89554477 0.3842909 -0.61267185 0.97700447 -0.41298288 -0.14780419 -0.10308479
00000000: a31c 4d3f c70b debe a0f4 58bf f105 d93d
00000010: 7485 fcbe dc6e c5be dc6d 183f 554a 80be
00000020: b1d6 ae3b 56dc 393f 4c6e 95be 6c5c 723f
00000030: 350a 39bf 35c5 1d3f 5b13 163e 9955 3dbe
00000040: b50b f53e 7d01 083f 0a8a d53e 08ca 613e
00000050: 1179 5a3f 6340 39bf 2486 c2be 80de 6ebf
00000060: a0df 64bf 2faa 3dbf fe17 0a3f 68d5 113e
00000070: 6cea f03e 70bd a4bd ef09 89bf cfe2 523f
00000080: 073b b7be 0a0d 23be 09a3 68bf 9f8c 123f
00000090: 762b aebe 5de9 f9bc 65b0 343f 9a68 893e
000000a0: ece2 61bf e91e 31bf 9519 003f 7e39 a23e
000000b0: ad74 5cbe 5bf0 4abf 7805 1cbe 149a 39bf
000000c0: 8130 d03c ed17 e0be 0641 68be 70c0 863f
000000d0: 9b4d 1ebf 83f3 61bf bbd0 14be a9bf aabe
000000e0: 117e 873d 6c42 653f c7c1 c43e 10d8 1cbf
000000f0: f71c 7a3f 7e72 d3be fb59 17be 1e1e d3bd

output.weight f4 [1, 64]
0.30817425 1.2356625 -1.7053142 0.21837507 -1.4377135 1.254094 0.22957212 0.36750445
0.26070824 -0.2869516 0.31433922 -0.29462633 0.90428203 -0.51334107 -0.35505208 -0.66779876
0.28497824 -0.3041371 0.27163363 -0.13504653 -0.6307735 1.4957387 -0.16361204 1.0601234
0.93226534 -1.3826911 -0.16122276 -0.30552432 0.6155287 -0.22020221 1.7144599 -0.38118163
-1.0803238 0.28923967 -1.6459979 -0.4035566 -1.68616 1.722351 -0.2682717 0.12569381
1.1689149 -1.3698653 -0.15410025 -0.10088779 0.47846127 0.30956843 0.13256621 -1.4893584
0.7899832 0.9779808 -2.0448074 0.5378773 -1.6976492 0.56583005 0.56792843 -1.5256311
0.27541345 -0.32793203 -0.3022793 -1.1144198 0.38661617 -0.50556546 -0.5318775 0.95463264
00000000: 04c9 9d3e 302a 9e3f bc47 dabf b79d 5f3e
00000010: ff06 b8bf 2786 a03f f414 6b3e 8b29 bc3e
00000020: 8d7b 853e 52eb 92be 12f1 a03e 43d9 96be
00000030: 077f 673f 526a 03bf 63c9 b5be dcf4 2abf
00000040: abe8 913e dcb7 9bbe 9013 8b3e a349 0abe
00000050: 5f7a 21bf 5e74 bf3f ea89 27be 20b2 873f
00000060: f1a8 6e3f 06fc b0bf 9417 25be af6d 9cbe
00000070: 4a93 1d3f b07c 61be 6c73 db3f 3d2a c3be
00000080: 0d48 8abf 3917 943e 0fb0 d2bf f89e cebe
00000090: 17d4 d7bf ff75 dc3f e95a 89be e1b5 003e
000000a0: 019f 953f bf57 afbf 75cc 1dbe 429e cebd
000000b0: e0f8 f43e c17f 9e3e 70bf 073e 4ca3 bebf
000000c0: 573c 4a3f f35c 7a3f 20de 02c0 54b2 093f
000000d0: 924c d9bf 3dda 103f c263 113f e147 c3bf
000000e0: fe02 8d3e b5e6 a7be 5ac4 9abe 4fa5 8ebf
000000f0: 8ef2 c53e bd6c 01bf 2029 08bf ce62 743f
