squadro/Data/best_random_params_210.pth (torch, 15624 bytes, 3 tensors)

linear1.weight f4 [64, 50]
0	0xbe08d61b	-0.13362925
1	0xbd6adb44	-0.057338014
2	0xbfb1a65e	-1.3878896
3	0x3f1d015f	0.6133022
4	0x3e8c34c7	0.27384016
5	0xbe04c8ac	-0.12967175
6	0xbd6a6a7a	-0.05723045
7	0x3ccd0d64	0.0250308
8	0xbe04784c	-0.12936515
9	0xbe9f3428	-0.3109448
10	0xbe5a40ed	-0.2131383
11	0x3ed36bfe	0.4129333
12	0xbeb1a0b6	-0.34692925
13	0x3f57675d	0.84142095
14	0xbecb4329	-0.39699677
15	0xbe2b7d15	-0.16746934
16	0xbfd2cc00	-1.6468506
17	0x3cec7213	0.028862989
18	0xbc9b087f	-0.01892495
19	0xbebbf42d	-0.3670973
20	0x3ee7063a	0.45121938
21	0x4080091e	4.001113
22	0xbd25350a	-0.040333785
23	0xbe01e648	-0.12685502
24	0x3d7d4680	0.061834812
25	0xbe8b5d19	-0.27219465
26	0x3ca2014f	0.019776015
27	0xbe5329fc	-0.20621485
28	0xbf02d71a	-0.5110947
29	0xbe75d9b2	-0.24008825
30	0x3fca825a	1.582103
31	0x3dede5e8	0.11616117
32	0x3e9951df	0.29945275
33	0xbf250463	-0.6445982
34	0x3f4f12fe	0.80888355
35	0x3e478f56	0.19488272
36	0xbd8da6f9	-0.06916613
37	0x3ea8f537	0.32999584
38	0xbdf33cb1	-0.1187681
39	0xbec62b61	-0.3870497
40	0xbe8994d2	-0.26871353
41	0xbcc3acc3	-0.02388609
42	0x3dd2dc6a	0.10295947
43	0xbde8523c	-0.1134381
44	0xbe299be0	-0.16563368
45	0x3da45d55	0.08025614
46	0x3df0ee6e	0.11764227
47	0xbea3d15f	-0.31995675
48	0xbcb8c3b8	-0.022554263
49	0x3d0b7cf8	0.034054726
50	0x3e100d15	0.1406749
51	0xbe62e4a6	-0.22157535
52	0xbcce7b26	-0.025205206
53	0xbe05536f	-0.13020109
54	0x3d611233	0.054948997
55	0xbee5abe1	-0.44857696
56	0x3d0fcf04	0.035109535
57	0xbe7d0271	-0.24707963
58	0xbeb29dca	-0.34886009
59	0xba4fa7c6	-0.00079214235
60	0xbebef62e	-0.37297195
61	0x3d5e7d46	0.05431869
62	0xbf119ef3	-0.5688316
63	0xbe4684d9	-0.19386615
64	0xbefab721	-0.4896784
65	0xbea2c2f6	-0.31789368
66	0xbdc9686d	-0.09834371
67	0xbc817bf7	-0.015806181
68	0xbecc7f5d	-0.3994092
69	0xc053b3da	-3.3078523
70	0x3e809bf2	0.25118977
71	0x3e72f7c0	0.23727322
72	0x3c9b46dc	0.018954687
73	0xbbb8f4f7	-0.0056444365
74	0x3cfe6c68	0.031057552
75	0x3e8de0db	0.27710614
76	0x3ee228d3	0.4417177
77	0x3e3780b2	0.17920187
78	0xbd4146c7	-0.04718664
79	0xbeb9dc5a	-0.36300927
80	0x3e5bc7aa	0.21462885
81	0x3eb5ff28	0.3554623
82	0x3caa367e	0.020777937
83	0xc051d537	-3.2786386
84	0xbd38202a	-0.04495255
85	0x3bca1342	0.0061668465
86	0xbef9e95e	-0.48810858
87	0x3e929bcb	0.28634486
88	0xbe923a97	-0.28560326
89	0x3f62c9c5	0.88589126
90	0xbc2b92e2	-0.010472031
91	0xbe4f70e5	-0.2025791
92	0x3e08a5eb	0.13344543
93	0xbe465a88	-0.19370472
94	0x3d081249	0.033220563
95	0x3eb82cbf	0.3597164
96	0x3f6220e6	0.8833145
97	0x3ea46be9	0.3211358
98	0xbe079795	-0.13241418
99	0xbcfcd792	-0.03086451
100	0xbe077558	-0.13228357
101	0x3f1aac80	0.60419464
102	0x3f95e461	1.1710321
103	0x3f7ad583	0.97982043
104	0xbf7d2773	-0.9888832
105	0xbd3ff710	-0.046866477
106	0xbc888dd8	-0.016669199
107	0x3fa236df	1.2672995
108	0x3f540c8e	0.82831657
109	0x3f213b35	0.6298097
110	0xc00a1f95	-2.1581776
111	0xbf62304d	-0.8835495
112	0xbd83cd8e	-0.06435691
113	0xbffbed0b	-1.9681715
114	0x3e7f3cc8	0.2492553
115	0x3e25b8a3	0.16183715
116	0xbf523570	-0.8211279
117	0xbec6d8de	-0.38837332
118	0xbe55ce1e	-0.20879409
119	0x3ea9a7d4	0.33135855
120	0xbfd99d30	-1.7001095
121	0x3faf035e	1.3672903
122	0x3eb052e2	0.34438235
123	0xbf350806	-0.7071537
124	0x3df8e2da	0.121526435
125	0xbe83da10	-0.25752306
126	0x3f8cdeb8	1.1005468
127	0xc00dc30c	-2.2150297
128	0xbf21da30	-0.6322355
129	0xbdcfca05	-0.10145954
130	0xbf0a0019	-0.539064
131	0xbead228b	-0.33815417
132	0xbfadc56e	-1.3575876
133	0xbef78750	-0.48345423
134	0xbf265be0	-0.6498394
135	0x3fe6eade	1.8040426
136	0x3f4e21ff	0.80520624
137	0x3ea1b284	0.3158151
138	0xbf207855	-0.6268361
139	0x3edc411e	0.4301843
140	0xbf662070	-0.89893246
141	0xbfcd7c62	-1.6053584
142	0x3dc15470	0.09439933
143	0xbf835f0e	-1.0263383
144	0x3e5c79b3	0.215308
145	0xbf00ac0b	-0.50262517
146	0xbedcd33f	-0.43129918
147	0xbe2a0038	-0.16601646
148	0x3da32556	0.07966106
149	0xbf34451d	-0.7041796
150	0x3dff2c66	0.1245964
151	0xbf8d1421	-1.1021768
152	0x3ec04568	0.37552953
153	0x3eb0abe3	0.3450614
154	0xbeb81520	-0.35953617
155	0xbe54232e	-0.20716545
156	0xbdcdbdce	-0.10045968
157	0x400f3b87	2.2380083
158	0xbefd2c56	-0.49447888
159	0xbf2e8ecc	-0.6818664
160	0x3e7c3030	0.24627757
161	0x3f1a67ce	0.60314643
162	0x3ec75060	0.3892851
163	0xc0063421	-2.0969317
164	0xbd6521b9	-0.055940364
165	0xbec4b295	-0.38417497
166	0xbf0e6acd	-0.55631715
167	0xbe0b8a08	-0.13626873
168	0xbd85219b	-0.0650055
169	0x3eee3ff7	0.46533176
170	0xbf7b6ff4	-0.982177
171	0x3fccdc66	1.600476
172	0xbfb2c850	-1.396738
173	0xbe8f29e3	-0.27961645
174	0xbdfbaddc	-0.122890204
175	0xbf836d30	-1.0267696
176	0xbef6824d	-0.48146287
177	0xc044aeae	-3.0731616
178	0x3ecc3c09	0.39889553
179	0xbfa3515c	-1.2759204
180	0xbf2bbfec	-0.67089725
181	0xbf96b9eb	-1.1775488
182	0xbf83f4bc	-1.0309062
183	0xc0589f57	-3.3847253
184	0xc0fdb5e6	-7.9284544
185	0x3f85386e	1.0407846
186	0x3f7bcab6	0.9835619
187	0xbf143585	-0.57894164
188	0xbdfe8cba	-0.12429185
189	0xbefdc589	-0.4956477
190	0x3f347de8	0.7050462
191	0x3d7416f6	0.05959221
192	0xbe0d4451	-0.13795592
193	0xbf8513be	-1.039665
194	0xbe18ef54	-0.14935046
195	0xc0640125	-3.5625699
196	0xbf0d0b5d	-0.55095464
197	0xbf44ad61	-0.76827055
198	0xbd8cc9d8	-0.06874436
199	0xbcbecadf	-0.023290096
200	0x3e102079	0.14074887
201	0xbe4d4e44	-0.20049387
202	0x3de531c0	0.1119113
203	0x3b824538	0.0039755367
204	0x3fdc9bf8	1.7235098
205	0xbe40f5f1	-0.18843819
206	0xbdb83f15	-0.08996407
207	0xbe9c8ff6	-0.30578583
208	0xbe9ab0dc	-0.30213058
209	0xbe4488ef	-0.19192861
210	0x3d91a812	0.07112135
211	0xbf011817	-0.50427383
212	0xbe8389d3	-0.2569109
213	0x3edeaee4	0.43492806
214	0xbe6d86fb	-0.23196022
215	0xbea2b4fe	-0.3177871
216	0xbd833115	-0.06405846
217	0xbdb5872a	-0.08863671
218	0xbecfa687	-0.40556738
219	0xbe9c653d	-0.3054599
220	0x3e809adc	0.25118148
221	0xbe45d9de	-0.19321391
222	0xbe432f83	-0.19061093
223	0xbba27c39	-0.004958656
224	0xbdea4804	-0.11439517
225	0x3f601e81	0.87546545
226	0xbcd690a5	-0.026192019
227	0x3f872291	1.0557424
228	0x3d42b783	0.04753829
229	0xbe35fc5b	-0.17772047
230	0xbd75cc18	-0.060009092
231	0xbea1c66c	-0.31596696
232	0xbea90083	-0.33008203
233	0xbf45c11c	-0.77247787
234	0x3c180816	0.009279272
235	0xbe17fb73	-0.14842014
236	0xbeaf7475	-0.34268537
237	0xbefde9ec	-0.4959253
238	0x3aa10d1d	0.0012287233
239	0x40091d00	2.142395
240	0x3dd01686	0.10160546
241	0x3eaceb9e	0.33773512
242	0xbd8c0467	-0.06836777
243	0xbef6468e	-0.48100704
244	0xbdff18b0	-0.12455881
245	0xbe08ec57	-0.13371406
246	0x3f6eae09	0.93234307
247	0x3dd66208	0.10467917
248	0x3d8ca6f6	0.06867783
249	0xbcc680f2	-0.024231408
250	0x3d165e48	0.036711007
251	0x3f50f6b6	0.8162645
252	0x3f901c8b	1.1258711
253	0x3ff28c0f	1.8948992
254	0x3f8801f7	1.06256
255	0x3f492dc5	0.78585464

linear1.bias f4 [64]
0	0xbf93c7a4	-1.15453
1	0xc03ee7c7	-2.9828966
2	0xc08b349e	-4.350173
3	0xc020d95c	-2.5132666
4	0xbf57dbff	-0.8432006
5	0xc013aacd	-2.3072999
6	0xbf5d685a	-0.8648735
7	0x3e141ba3	0.14463668
8	0xc0276e67	-2.6161134
9	0xc00a779b	-2.1635501
10	0xbf4e01b7	-0.80471367
11	0xc074b39d	-3.8234627
12	0xc02c671a	-2.6937928
13	0x400a45ba	2.1605058
14	0xc081df7e	-4.0585318
15	0x4004e0d4	2.0762224
16	0xc084c149	-4.1485944
17	0x3c9e8c1d	0.01935392
18	0xbd45f636	-0.04833051
19	0xbfa29d91	-1.2704335
20	0xc08159b8	-4.042202
21	0xbfc8f3fc	-1.5699458
22	0x4058542e	3.380138
23	0xc06cfd81	-3.7029727
24	0xc05b0b6c	-3.4225721
25	0xc06e8e62	-3.7274404
26	0xc0886113	-4.26185
27	0x3f6c32ae	0.9226483
28	0xc08346d1	-4.1023946
29	0xc0461a94	-3.0953722
30	0xc0801104	-4.002077
31	0xbef8366a	-0.48479015
32	0xc090c32f	-4.523826
33	0xc01dca75	-2.465482
34	0xc08b67a5	-4.356402
35	0xbf6e3adf	-0.9305858
36	0x3f951ae6	1.1648834
37	0x3f5cfd92	0.8632442
38	0xbfc735fa	-1.5563347
39	0xc03aff4e	-2.9218326
40	0xc08c1472	-4.377496
41	0xbfe09da7	-1.7548112
42	0xc0a01b61	-5.003342
43	0xc08a40e2	-4.3204203
44	0x3ed9bb09	0.4252551
45	0xc00fc23b	-2.24623
46	0xc063332c	-3.5499983
47	0xbd868c27	-0.06569701
48	0xc08d74aa	-4.420491
49	0xc0778001	-3.8671877
50	0xc022700d	-2.538089
51	0xc00b4cf7	-2.1765726
52	0x3ff0e39e	1.8819463
53	0xc089dbba	-4.308072
54	0x3faf6a71	1.3704358
55	0xc0383664	-2.8783197
56	0xc0592339	-3.3927748
57	0xc0821905	-4.065554
58	0xbf7e5b3a	-0.9935795
59	0xc0a10b3c	-5.0326214
60	0xc073bb83	-3.8083198
61	0xc096df95	-4.7147927
62	0xc06dd93f	-3.7163846
63	0xc079290a	-3.8931298

output.weight f4 [1, 64]
0	0x3d59b513	0.0531512
1	0xbe3a6dd6	-0.18205962
2	0x3f1bedab	0.6090953
3	0x3e848ac8	0.25887132
4	0x3dd0e075	0.10199062
5	0x3e690ef1	0.22759606
6	0x3eae10d7	0.33997223
7	0x3e1b420b	0.15161912
8	0x3e84c0f6	0.25928468
9	0xbf16a533	-0.58845824
10	0x3d85c472	0.065316096
11	0xbf053215	-0.52029544
12	0xbe4b925b	-0.19880049
13	0x3d952856	0.07283084
14	0x3ecfef95	0.40612474
15	0xbda7486c	-0.0816811
16	0x3eccc423	0.3999339
17	0xbe86aec4	-0.2630521
18	0x3e056834	0.13028032
19	0x3dfae4ad	0.12250648
20	0x3f280e21	0.6564656
21	0x3e23010c	0.15918368
22	0xbe3641c9	-0.17798533
23	0x3f3f8deb	0.74825925
24	0x3eebeaa3	0.4607745
25	0xbf5dc103	-0.8662264
26	0x3f0c95f8	0.54916334
27	0xbda7dfd4	-0.08196989
28	0xbf10f2f0	-0.56620693
29	0x3e6adf6b	0.2293679
30	0x3eee524e	0.46547168
31	0x3d69c9f0	0.05707735
32	0xbfdb2349	-1.7120143
33	0xbe896187	-0.2683222
34	0x3f3dfc70	0.74213314
35	0x3e1c9114	0.15289718
36	0xbdff0463	-0.124520086
37	0xbdf36e17	-0.11886232
38	0xbe576b44	-0.21037012
39	0x3e24fd9c	0.1611237
40	0x3edfef91	0.43737462
41	0xbec7fec5	-0.3906156
42	0x3f348e7d	0.7052992
43	0x3ebea54c	0.37235487
44	0xbe4058ad	-0.18783827
45	0xbe39c289	-0.18140616
46	0x3e7d0ad2	0.24711159
47	0x3dcd3ea8	0.10021716
48	0x3f13eda2	0.57784474
49	0x3dfd4383	0.123663925
50	0x3e2af53d	0.16695113
51	0x3e152a1b	0.14566843
52	0xbdc71e4d	-0.09722576
53	0x3ea842e9	0.32863548
54	0x3dcb7c2a	0.09935792
55	0x3e3aeb5c	0.18253845
56	0x3e4e0e5e	0.20122668
57	0x3f149a1e	0.58047664
58	0xbe254ea7	-0.16143285
59	0xbf0607f8	-0.5235591
60	0x3e7b5c34	0.24546891
61	0xbf03f38d	-0.51543504
62	0xbeecb990	-0.46235323
63	0x3eaaeef2	0.33385426
