squadro/Data/best_random_params_203.pth (torch, 15624 bytes, 3 tensors)

linear1.weight f4 [64, 50]
000000 80 11 b1 bc 13 26 ce 3d 06 d7 f0 3e 58 12 d6 3d
       -0.02161479 0.10065856 0.4703905 0.104527175
000010 cc c9 de 3c 5e 94 46 3d c8 28 0f bd fb 84 fc bc
       0.027195834 0.048481338 -0.034951 -0.030825129
000020 4f 12 2b 3e 98 9c 24 3f ae 14 f1 bb 63 1f 33 be
       0.16706203 0.64301443 -0.0073572015 -0.17492442
000030 29 8d 2c 3e 31 43 f1 3d d9 10 c3 bd fd e6 2f bc
       0.16850723 0.11780394 -0.09524698 -0.010736224
000040 60 56 46 be c1 5f 56 be d2 dd 8e bd c3 80 3f 3d
       -0.19368887 -0.20934965 -0.069759026 0.046753656
000050 2b 24 1c 3e 9e 79 00 be 26 c7 28 bc cc a8 8f be
       0.15248172 -0.12546393 -0.010301387 -0.2805847
000060 f0 e4 64 bd 02 cb dc bd 1e 26 6e bd bd 91 f9 bd
       -0.055882394 -0.10780908 -0.05814182 -0.121860005
000070 00 e3 b7 bd 9a 25 9a bd 23 e4 92 be 0b c2 8e be
       -0.08978844 -0.07526703 -0.2868968 -0.27882418
000080 cf 52 69 be 52 31 82 bd 2b eb 93 3c 3c 4b 01 bd
       -0.22785495 -0.06357063 0.018056473 -0.03156589
000090 64 29 41 be 20 c1 ca be 65 f5 8b bc ff 04 18 be
       -0.18863446 -0.39600468 -0.017084787 -0.14845656
0000a0 53 bb 98 bc 84 70 a9 bd 34 10 2e 3d d7 15 88 bd
       -0.01864401 -0.08273414 0.04249592 -0.066447906
0000b0 77 19 de be 91 f3 fb bd 30 8e 1e bd 60 6f dc bd
       -0.43378803 -0.12302316 -0.03870982 -0.107634306
0000c0 60 35 20 bc 74 13 f8 3c aa f9 97 bd 5c 98 c0 3c
       -0.009778351 0.030282713 -0.074206665 0.02351015
0000d0 8d 48 45 3e c0 ac 5b 3d 10 c4 68 3e 07 99 55 be
       0.19265957 0.053631544 0.22731042 -0.20859157
0000e0 99 fa 8e bd 87 56 04 bd 6f 83 79 be 69 3d e9 bd
       -0.069813915 -0.03230908 -0.24366544 -0.11388666
0000f0 23 b1 58 3c 43 82 51 3e e5 f6 9f bd 7c 7e dc bb
       0.013225826 0.20459847 -0.07810763 -0.0067289453
000100 a3 62 da bd 0e b1 08 be 27 2e 2a 3e c3 29 21 3d
       -0.10663345 -0.13348791 0.16619168 0.039346468
000110 9b 5b fa 3d 72 9b 56 be e7 23 5f bc 59 12 c0 3d
       0.122245036 -0.20957735 -0.0136194 0.093784995
000120 f5 06 f2 bd 35 a5 08 3e 8c e9 55 3d dc 3a c4 3c
       -0.11817733 0.13344271 0.05222468 0.023953848
000130 6c a6 9f 3e 1e 95 a6 be c5 bd 70 3c c5 a4 b2 be
       0.31181657 -0.32535642 0.014693682 -0.34891334
000140 01 da 87 bd 1f d3 a5 be bc d0 56 be 46 bb 90 3e
       -0.06633378 -0.32387635 -0.20978063 0.28267878
000150 c3 21 63 be 4f eb 05 bd 04 6a 0d be b4 23 03 3d
       -0.22180848 -0.03269511 -0.13809973 0.03201647
000160 6d 1e 42 be 50 02 03 be d0 95 ba be 2b d1 3a be
       -0.18956919 -0.12793851 -0.36442423 -0.18243854
000170 c4 8a 56 3d 7c 58 2f be c7 c0 80 3d 04 ce 62 3e
       0.05237843 -0.17123598 0.06286769 0.22148901
000180 76 92 93 bd 40 2a 7d 3c 00 ce 47 3a 1b 84 99 3d
       -0.072056696 0.015451968 0.0007621944 0.074959
000190 34 de 70 bd b1 b0 62 3c 2d 07 8c 3d 32 33 e5 3e
       -0.05880566 0.013836072 0.06837306 0.4476562
0001a0 27 5a bc 3d c0 27 f7 bc ee b2 e5 3d f1 64 04 be
       0.09196883 -0.030170321 0.11215769 -0.12929131
0001b0 ad 79 26 be 57 e0 b8 3d f7 6d 8f 3e 6e 6f 40 3d
       -0.16257353 0.090271644 0.28013584 0.046981268
0001c0 b9 77 f0 bd 65 fc c4 3e e0 d5 7a be 13 d8 27 be
       -0.11741585 0.38473812 -0.2449565 -0.1639102
0001d0 b7 a4 b1 3d 48 15 19 be 28 c5 0f 3d de 86 be 3d
       0.08673995 -0.14949524 0.035100132 0.093030676
0001e0 e3 0e 39 3e ea a4 49 3f 6a b4 80 be 71 62 90 bc
       0.18072085 0.78767264 -0.25137645 -0.017625066
0001f0 96 c5 00 bd 11 42 31 3b a3 3f 27 3c ad 4f f4 bd
       -0.031438433 0.0027047435 0.010208043 -0.119292594
000200 62 86 ca 3e af 5a 05 bd 6b 98 bf bd 42 0e 16 bd
       0.3955565 -0.032557186 -0.09355243 -0.03663469
000210 01 a3 53 3c c6 a6 42 3d 0c 83 8c bd 81 4e cb be
       0.012917281 0.04752233 -0.06860933 -0.3970833
000220 20 4d 20 be f9 8f a4 be 7f 8f cf be 6e 27 82 be
       -0.15654421 -0.32141092 -0.40539166 -0.25420707
000230 04 8c 26 be 93 ba f5 bd c4 da d2 3d 90 62 9b be
       -0.16264349 -0.11998477 0.102956325 -0.30348635
000240 03 da 04 bd 7a b9 23 be 3b 70 e7 bd 9b cf 48 be
       -0.032434475 -0.15988722 -0.11300703 -0.19610445
000250 92 e7 b7 bd e1 3b d2 3a 4c 06 ba bc aa e4 a2 bd
       -0.089797154 0.0016039574 -0.02270808 -0.079537705
000260 3a 5b b1 bd 11 ea ac 3c f6 f6 84 3d d5 17 9f bd
       -0.08659978 0.021107705 0.064924166 -0.077682175
000270 24 c0 5a 3d ec a2 07 3e fe 31 b8 3e 16 66 fe bd
       0.053405896 0.13245744 0.3597564 -0.12421815
000280 e4 0d 74 3e 5f dd 18 3e 54 71 1e be 11 d0 c0 3d
       0.23833424 0.14928196 -0.15472919 0.094146855
000290 3c 4a f5 3e 5b dd 4c be 37 a0 8e 3e dc 19 4d 39
       0.479082 -0.20006315 0.2785661 0.00019559957
0002a0 28 7f 81 3e ae 18 ad bd 2f c7 2d 3c a9 3d b4 3c
       0.25292325 -0.08451973 0.010606571 0.022002058
0002b0 f9 97 5a be ce 6c 33 be c5 e9 83 bd 9f 8d 04 be
       -0.21347035 -0.17521974 -0.064410724 -0.12944649
0002c0 55 d0 88 be 76 fc 39 be ad ac b3 3d 90 19 bf bc
       -0.26721445 -0.18162712 0.0877317 -0.023327619
0002d0 58 6c 89 3d cc 69 09 be 67 4e 89 bd 6c 39 96 bd
       0.06710118 -0.13419265 -0.06704407 -0.07335171
0002e0 f1 0d b5 bd 62 8e 9e 3d bd 4a 27 3e dc f2 c8 be
       -0.0884055 0.07742001 0.16337104 -0.39247787
0002f0 31 f7 8a bd e9 5f 06 bf 60 9f dd 3b d5 6b aa 3d
       -0.06785429 -0.524901 0.0067633837 0.083213486
000300 ca 71 af 3d c4 99 66 be 83 20 61 be e6 6b 99 be
       0.085666254 -0.22519594 -0.21985058 -0.29965132
000310 09 12 42 be 86 4d cf bd bc 71 f5 bd 9c 8d e4 bd
       -0.18952192 -0.10122208 -0.11984584 -0.11159822
000320 cf 97 01 3e 80 6b aa 3e 30 1f 94 3e b4 e5 4b 3d
       0.12655567 0.3328514 0.28930044 0.04977961
000330 eb 59 27 3f f7 b2 68 3d 51 3b c3 bd 94 6c a4 be
       0.6537158 0.0568113 -0.09532798 -0.3211409
000340 98 52 92 3d 33 7f f2 3c be 55 49 bd 80 df a9 3c
       0.0714466 0.029601669 -0.049154036 0.020736456
000350 0e 9f 09 be f9 d5 a5 be dc 5f 02 bd b7 6a d7 3d
       -0.13439581 -0.3238981 -0.0318297 0.10518401
000360 5b 67 06 3c 96 12 a7 bc 7f 10 84 bd e7 69 69 be
       0.008203353 -0.020394605 -0.06448459 -0.22794305
000370 70 14 d0 bd e7 8c 50 3c e8 90 08 bd bf 07 51 bd
       -0.10160148 0.012728906 -0.03334132 -0.051032778
000380 84 c8 8a bc 0a 06 b6 bd 8c 59 9c be 78 e9 12 bf
       -0.016941316 -0.088878706 -0.3053707 -0.57387495
000390 ae 42 41 3e bb 8a 94 3d 94 34 96 bd 02 4c a5 be
       0.18873093 0.07253023 -0.07334247 -0.32284552
0003a0 78 13 76 bd 01 16 8e be 16 c7 2b be 7a dc 10 be
       -0.06007716 -0.27751163 -0.16775164 -0.14146605
0003b0 2c 5d fc 3c a7 c0 8e be 70 ca 53 be 54 2a 3d be
       0.030806147 -0.27881357 -0.20682693 -0.18473178
0003c0 ef c6 9f be 7b 64 d6 be 3a 81 06 be e9 aa 0f bf
       -0.31206462 -0.41873536 -0.13135234 -0.56120163
0003d0 61 a8 57 be 0e a3 c6 be dc 4c 16 bf bd 10 dc be
       -0.21060325 -0.38796276 -0.5871103 -0.4298152
0003e0 6e 5e b6 3d 44 69 cf 3b 28 06 6d 3d 5d 9a cc bb
       0.0890473 0.0063296873 0.0578672 -0.0062439875
0003f0 04 0a 12 3a 17 0f 01 be 59 f8 d1 bd a0 44 2a bd
       0.00055709505 -0.12603413 -0.10252447 -0.041569352

linear1.bias f4 [64]
000000 15 ce d6 be 87 a3 09 be b3 8f 42 3d c4 28 04 bf
       -0.41954103 -0.13441287 0.047500324 -0.51624703
000010 0b 00 63 3d 56 2d 75 3e 21 35 2d 3e ac bf 99 be
       0.055419963 0.23943076 0.16914798 -0.30029047
000020 02 27 2d 3e a2 36 68 3e 70 57 73 bd 0a 36 88 3d
       0.16909412 0.22677091 -0.05940956 0.06650932
000030 f1 36 b0 3b 1d 6d 38 be 63 0c 17 bf 5a 3b da bd
       0.0053776433 -0.18010373 -0.59003276 -0.10655852
000040 ef ce b6 3d 7c b2 a8 be d3 43 0e be fa 27 12 3f
       0.08926188 -0.32948673 -0.1389306 0.5709225
000050 06 41 3e 3c b4 d4 76 be c1 40 aa 3c 08 f8 eb be
       0.0116121825 -0.24104577 0.02078283 -0.4608767
000060 69 63 a6 be 96 0f 7c 3e 84 b2 95 3d af 7f f1 bd
       -0.3249772 0.2461532 0.0730944 -0.11791932
000070 22 66 63 be cb b9 da 3e 05 f3 22 bf dd 28 08 3e
       -0.2220693 0.42719874 -0.6365207 0.13296838
000080 ba 77 8d 3e 3d a4 bd be 1a 2c ec be aa be 03 3f
       0.27630407 -0.37039366 -0.46127397 0.51462805
000090 da 85 97 3c ef 4e b3 be 20 77 5b 3c 6c e8 f5 3d
       0.018496443 -0.3502116 0.013395101 0.120072216
0000a0 e5 58 06 3f 10 f4 6b be 83 71 0c 3e c9 54 5c bc
       0.5247939 -0.23042321 0.13715176 -0.013447949
0000b0 04 a3 1a bc 8a d9 75 3d 33 d6 2f be 23 a8 72 3e
       -0.00943828 0.060021915 -0.17171554 0.23696952
0000c0 e7 38 04 3f 16 ee 92 3d 08 5d 94 be a0 82 8d bd
       0.51649326 0.071743175 -0.28977227 -0.0690968
0000d0 9b a5 df be db 13 23 bf d9 74 22 be c9 5a b7 be
       -0.43681034 -0.6370217 -0.15864886 -0.3581145
0000e0 01 22 09 3f e3 9b f6 be 3f e4 90 be 56 5a a0 be
       0.5356751 -0.48165807 -0.28299138 -0.3131892
0000f0 c1 91 24 bf 67 25 6a be b0 57 c0 bd ab 6f 40 3e
       -0.642849 -0.2286583 -0.09391725 0.18792598

output.weight f4 [1, 64]
000000 e2 03 a9 3e 42 38 01 3e d9 f4 cc bd 3e b3 fb 3e
       0.33010775 0.12619117 -0.100076385 0.49160188
000010 dd bc bd be a8 81 ff 3d 39 82 65 bd 5d 98 be 3e
       -0.37058154 0.12475902 -0.056032393 0.3722562
000020 fc a3 73 be 00 dd 42 be fe 89 fe 3e 47 7c b8 3d
       -0.23793024 -0.19029617 0.49714655 0.09008079
000030 ed 0c e3 bc 28 fb 4e 3e 3c 1e a7 3e 86 2b 57 3e
       -0.027716124 0.20212996 0.32640254 0.21012697
000040 97 ba b9 be e6 ba 35 bd de 02 cf 3e 26 0c 35 be
       -0.3627517 -0.044367693 0.40431875 -0.17680416
000050 e3 c1 2f be ac 14 f8 3d ae 65 1f bd 14 02 04 3f
       -0.17163806 0.12113318 -0.03891533 0.5156567
000060 5d 56 02 3e c8 ef 3c bd 8f 06 e4 3d e2 17 53 be
       0.12728257 -0.04612711 0.111340635 -0.2061458
000070 de 3e 0f bf 58 49 1a be f1 e6 7f 3e d8 d7 0a 3e
       -0.559553 -0.15067041 0.24990441 0.135589
000080 73 39 01 3e 80 b2 aa 3e 80 43 a5 3e 45 05 80 be
       0.12619571 0.3333931 0.3227806 -0.2500402
000090 36 3b 05 3e df 3a c9 3e b9 b0 ba 3d 21 9c 8d be
       0.13010868 0.39302728 0.091157384 -0.2765818
0000a0 ab 73 83 be cd 6c 35 bd 47 30 f0 3d f8 b7 21 3e
       -0.25674185 -0.044293214 0.11727958 0.15792835
0000b0 b3 e2 7f be 2d b0 30 3e 1c 41 cc 3d 9b 52 f5 3d
       -0.24988823 0.17254706 0.09973356 0.11978646
0000c0 e4 e4 47 be ef 0f cf 3d 14 fb 9e 3e 6e de 04 3e
       -0.19520909 0.10110461 0.31050932 0.12975475
0000d0 b7 0f b8 3e 1d 63 96 3e f3 bb 68 3e 97 11 7e 3e
       0.3594949 0.29372492 0.22727947 0.24811397
0000e0 6b 4d 48 be d8 c2 f2 3e ba 9f 01 3e e4 8f 84 3e
       -0.19560783 0.4741428 0.12658587 0.2589103
0000f0 ab 01 37 be f9 85 2a bf 8d e8 01 3e 0a 0c 3d bc
       -0.1787173 -0.66610676 0.12686367 -0.011538515
