Data/best_params_4.pth (torch, 15488 bytes, 3 tensors)

linear1.weight f4 [64, 50]
00000000: c8b9 923c fbc1 413d 282d 483f 55e8 7c3e
00000010: bdc6 b53e 5338 90bd fa23 d8bd 4b35 3fbe
00000020: 01e7 9abe da39 95c0 b288 b3bc 5e0e 9a3e
00000030: 6c96 b63d e764 573e e983 0bbe 92ab b7be
00000040: 1db0 a33e 9273 833d 3f2c 793e 7d5a 18bd
00000050: 261e 443e ffaa debd c2f9 13bf 521c 1f3e
00000060: f5c2 9abd cf20 08be 5fb1 a9be 8838 1b3e
00000070: 5a03 fa3d 287d 19bf 684c 9dbe b8f2 fcbd
00000080: ccbc 92bd 7256 a7be 955a 1ebe 2171 35bf
00000090: 010e 25bf 34c3 04be e90f 8bbd 13fd 33bf
000000a0: af54 a7be 0b63 8f3c 9edb e23d a811 28bf
000000b0: 98e6 9cbf a96f 86be 2411 9abe 0e61 b6be
000000c0: b74f babd dca0 a3bc 1842 87bc 57f9 40bd
000000d0: 3554 c53c 35da 81bc 7e29 3dbd 0811 7c3e
000000e0: 4885 733d bc13 e1bb 1967 1a3d 125a 823c
000000f0: c056 6cbd 4994 0cbd ce9b 5dbe 2027 60bc
00000100: 7845 f03e 52dd 133d dc3c 0cbd af3a dfbc
00000110: ce3a 4dbd 1c72 bdbe b1ed c4be a40c 8c3e
00000120: 90b0 233d 624d 1fbd 5419 563d a6e2 2cbd
00000130: 80c4 ccbd 5682 17bc 4994 0abe bf44 29ba
00000140: 1d22 5bbd c002 9dbc 81d0 9d3e 014c 9ac0
00000150: e1bc aa3e be12 3f3a 9bcb 9ebc 4f88 a4bd
00000160: 00fe c33d 40fb e33d 726c a33d 780e 9e3d
00000170: 041a a1bd 0f40 86bc fb15 59bd c867 5dbd
00000180: 6e42 f73c c808 9d3d 0077 a63d b61f 08ba
00000190: 9b65 eabd e2ca 06bd 6c69 4c3f 9654 bc3e
000001a0: d4e7 473f 8625 063f 97da 9cbd 0f5f 4b3f
000001b0: 8d0f 92be c37a 293f d458 70c0 18c0 a53f
000001c0: 2da8 c0c0 3e16 08bc d428 a43f 67da 5abf
000001d0: 5a16 043f bb3a adbb 9f90 ea3e e21d 2dbf
000001e0: 1ef6 96be d1b4 7b40 248c 34bf f7ea fabe
000001f0: ce8f e63d 40e6 14bf 9605 65bf 3fca 4ac0
00000200: 3476 b93f 19a8 aebf 6b77 033f a7c9 12be
00000210: 0ba7 30bf 1aa9 99bf e8c0 4dbf 2de7 1dc0
00000220: 8878 c1bf edfe b1be 620a 2d3f 63d7 b8be
00000230: 2227 a0bf 3ae2 fa3f c020 a73b d648 55bf
00000240: 035f 0ac0 5628 17bf 3ee2 7abf cc68 cebf
00000250: 7067 3e3c 2249 edbf 99dc f1bd 3cfa 12bf
00000260: 7d02 173f 562d 64be 8657 413f 1eac 593f
00000270: 007a ab39 e500 02c0 e6c7 0d3f 4d57 62bd
00000280: 5009 d23f 8674 9f3f 372e abc0 073e ea3f
00000290: c2ce 1e40 6550 e8bf 956a 9dbf e463 b8bf
000002a0: 00ea 7a3e a367 43bc dccc 133f cba9 633f
000002b0: 68bf 2cbf e04f d8bf ee90 aa3d 53fe 13bf
000002c0: 1cf7 01bf 3e5e 43c0 24ed 473f 26e1 b5bf
000002d0: 9a46 b23d 7399 24bf 5b39 91bf 5ee6 2dc0
000002e0: b4eb 033f 4d98 0bc0 472c bcbf acd3 78bf
000002f0: 7f63 0cc0 6624 2ebf 91b8 4cbf 5026 f63f
00000300: 9a2d f33d cc32 9cbf 9296 95bf dd8a f93e
00000310: c824 77bf 941d bebf 2c50 dbbc 1ccf 52c0
00000320: cfc6 073e 5dc0 4e40 7b3c 0c40 8b69 1440
00000330: ea43 893f 685f d33c 6561 0f3e 476d 8b40
00000340: 61f0 ec3d 4340 c03e 18ba 95bf 19aa b33f
00000350: 96d0 40bf 36bf 16c0 7526 35c0 c040 64c0
00000360: a528 3b3f d83f f4bd b858 603f 64d5 b5bf
00000370: b836 4cc0 9358 fe3e f8d6 8cbf 693e cfbe
00000380: 0c64 08bd f379 26bf fa9e 1fc0 271e 0bc1
00000390: f3ba 04c0 2081 b5bf acc2 0940 68d9 0bbf
000003a0: ae38 bebd f76d 5fc0 0393 49c0 651e 2240
000003b0: b239 8ec0 8971 c63e 7df6 963c d1d7 fa3e
000003c0: 86fb 94c0 e609 4ebf c236 b5bd ef63 02c0
000003d0: d941 75c0 d97e 80c0 fe35 12c0 5bc5 8ec0
000003e0: 244b 223d 2d8a 9bbe ec51 853d 93e3 1e3f
000003f0: 6d9b fa3e f202 98be 1999 b3be 85e6 863f
0.017910853 0.047304135 0.781939 0.24698003 0.35503188 -0.07041993 -0.10553737 -0.18672673
-0.30254367 -4.663312 -0.021915767 0.30089086 0.089154094 0.21034585 -0.13624538 -0.35873085
0.319703 0.06418528 0.24333285 -0.03719567 0.19152126 -0.10872459 -0.57802975 0.15538147
-0.07556716 -0.13293765 -0.33143136 0.15158284 0.122076705 -0.599566 -0.30722356 -0.123509824
-0.071649164 -0.3268314 -0.15464242 -0.70875746 -0.64474493 -0.12965089 -0.06790144 -0.70308036
-0.32681796 0.017503282 0.11077045 -0.6565194 -1.2257872 -0.26257065 -0.30091202 -0.35620922
-0.09097236 -0.019974165 -0.016511008 -0.04711279 0.024088005 -0.01585112 -0.04618215 0.24615872
0.05945328 -0.0068688076 0.037695978 0.01591209 -0.05769992 -0.034321103 -0.21641466 -0.013681203
0.46928 0.03609974 -0.034237728 -0.027249662 -0.05010491 -0.3700112 -0.38462594 0.27353394
0.039963305 -0.038892157 0.05227025 -0.042208336 -0.09998417 -0.009247383 -0.13533129 -0.00064570823
-0.05349933 -0.01916635 0.30823138 -4.821778 0.33347228 0.00072888646 -0.019384196 -0.08033811
0.09569931 0.111319065 0.07979669 0.077176034 -0.0786629 -0.016387967 -0.052999478 -0.05405405
0.030183043 0.076676905 0.08128166 -0.00051927136 -0.11445161 -0.032908328 0.7984836 0.36783284
0.78088117 0.52401006 -0.0765888 0.7944192 -0.2852749 0.66202945 -3.7554216 1.2949247
-6.0205293 -0.008306084 1.282496 -0.85489506 0.51596606 -0.0052865422 0.45813462 -0.6762372
-0.29484648 3.9329112 -0.7052634 -0.4900739 0.11257897 -0.58163834 -0.8946165 -3.1685941
1.4489198 -1.3645049 0.5135409 -0.14334737 -0.6900489 -1.2004731 -0.80372477 -2.4672348
-1.5114908 -0.34764805 0.6759397 -0.36101827 -1.2511942 1.9600289 0.0051003397 -0.83314264
-2.162049 -0.5904592 -0.9800147 -1.6125731 0.011621341 -1.8537943 -0.11809654 -0.5741308
0.5898817 -0.2228292 0.75524175 0.85028255 0.0003270656 -2.0313046 0.55383146 -0.055259038
1.6409092 1.2457435 -5.3493915 1.8300179 2.4813695 -1.8149534 -1.2298151 -1.4405484
0.24503326 -0.011926564 0.57734466 0.8893096 -0.6747956 -1.6899376 0.083284244 -0.5780994
-0.50767684 -3.052627 0.7809622 -1.4209335 0.087048724 -0.64296645 -1.1345628 -2.7171855
0.5153153 -2.1811707 -1.4701012 -0.97197986 -2.1935728 -0.6802429 -0.79969126 1.9230442
0.11873932 -1.2203002 -1.1686575 0.48738757 -0.965405 -1.4852777 -0.026771627 -3.293891
0.13259433 3.230491 2.1911914 2.3189418 1.0723851 0.02580233 0.14001997 4.3570895
0.11569286 0.37549028 -1.1697416 1.4036285 -0.75318277 -2.3554206 -2.8304722 -3.566452
0.73108894 -0.1192624 0.87635374 -1.4205747 -3.1908398 0.49676952 -1.1003103 -0.40477303
-0.033298537 -0.6502983 -2.4940782 -8.694861 -2.0739105 -1.4180031 2.1525068 -0.5462861
-0.092881545 -3.4910867 -3.149598 2.5331051 -4.444543 0.38758495 0.018428082 0.4899278
-4.6557035 -0.80483854 -0.08848335 -2.0373495 -3.832144 -4.0154843 -2.2845454 -4.4615912
0.03962244 -0.30378857 0.06509766 0.62066 0.48946705 -0.29689747 -0.35077742 1.0539099

linear1.bias f4 [64]
00000000: 8bca c1c0 241c 9d40 7270 9fbe 03cc 71c0
00000010: 76c2 86bf 66b0 25c1 bd5c 14c1 88d6 3dc0
00000020: bf73 c4c0 e1cb 2d40 4496 c7c0 e912 5640
00000030: d8b1 a3c0 4c09 87c0 bf5d 17c1 3b4b bec0
00000040: 4b21 a8c0 b9fb 253f 69a4 8fbf 26f7 d0c0
00000050: e0db aac0 0aaf 7a3e 124d 4040 701d 3840
00000060: c071 6cc0 e0dd a4c0 e158 d8c0 7150 c6c0
00000070: 4f19 1ec1 f933 0fc0 3842 6f3f e113 6c3f
00000080: f7fd a2c0 56c7 acc0 05bc aec0 3bb2 57bf
00000090: 9dff f2c0 6291 21c0 fdb5 0fc1 37d7 73c0
000000a0: 7ff4 3cc0 0a2e f9bd 1461 853f 1882 09c0
000000b0: 971a 88c0 88c1 afbe bf39 92c0 ee41 423f
000000c0: 6898 b8c0 5e8d b2c0 c63d 5b40 1247 35c1
000000d0: 1289 dcc0 d34b a2c0 ce57 533f 8821 e7c0
000000e0: 03d8 75c0 aa8e 97c0 f38b cdc0 82b0 f2bf
000000f0: 122d f7c0 c8fd 0740 8de2 77bf 7de3 1ac0
-6.0559745 4.909685 -0.31140476 -3.778077 -1.0528095 -10.355566 -9.272641 -2.966219
-6.139129 2.7155688 -6.237093 3.3449042 -5.1154594 -4.219885 -9.460387 -5.9466834
-5.254064 0.64837223 -1.1222049 -6.5301695 -5.33934 0.24480835 3.004704 2.8767967
-3.6944427 -5.1520844 -6.7608495 -6.1973195 -9.881179 -2.2375472 0.93460417 0.9221783
-5.0935016 -5.399333 -5.4604516 -0.84256333 -7.593703 -2.5244985 -8.981931 -3.8100107
-2.9524229 -0.121669844 1.0420251 -2.1485653 -4.253246 -0.3432734 -4.569549 0.7588185
-5.7686043 -5.5797567 3.4256454 -11.329851 -6.891732 -5.071756 0.82555854 -7.222843
-3.8413093 -4.736165 -6.4233336 -1.8960116 -7.7242517 2.1248646 -0.96830064 -2.4201348

output.weight f4 [1, 64]
00000000: 5d08 083e f5e9 0d3e f503 243e 2d6d 10bf
00000010: 4365 abbe 5dcf 38bf f0a3 c8be c52b 74bd
00000020: 09b5 273e 869e b8bd 8ed3 513e 4d2a c33d
00000030: ddaa 2d3e 09f9 82be c302 acbf 1792 1c3e
00000040: c79a 7cbe 6804 873d ba6e bd3d 9d96 ddbe
00000050: 5fc7 893f 3bcd ab3d c77f a8bd 6abb a0bd
00000060: 5f73 853e 8a81 2d3e 8225 7ebe 2487 ae3e
00000070: 4776 4dbf b0e6 dc3e efea cebd e90b 3bbe
00000080: 193c fbbe 04ed 043e 1618 48be 4ef3 07be
00000090: 088e 88bf 2b3c aa3d 4d25 15bf 5e62 b5be
000000a0: 79c6 f2be 5503 3d3d 9225 003e 0fb8 c13e
000000b0: efb8 89be 056c 033e 58d9 a3be 636b 97bd
000000c0: 71ae fdbe 8dd6 83be 0ddf 8c3d 0f88 9abf
000000d0: b234 4c3e fd1b f03e deda 53bd 7201 91be
000000e0: 7468 dd3d eca6 e93d 3890 8fbe cd4c 463e
000000f0: 9435 0940 fc35 16be 4dbd 85bd a15d b23d
0.1328444 0.13858779 0.16017134 -0.5641659 -0.33475694 -0.7219141 -0.39187574 -0.059612054
0.16377653 -0.09014611 0.20490858 0.095295526 0.1695971 -0.25580624 -1.3438343 0.15290104
-0.24668418 0.06592637 0.09249635 -0.4327897 1.0763968 0.08388754 -0.082274966 -0.078482464
0.26064584 0.16943946 -0.24818996 0.3408748 -0.802586 0.4314475 -0.10103404 -0.18266262
-0.49069288 0.1298104 -0.19540438 -0.13276407 -1.0668344 0.083122574 -0.5826004 -0.3542661
-0.47417048 0.046145756 0.12514332 0.37835738 -0.26898906 0.12834175 -0.32001758 -0.07393529
-0.4954715 -0.25749627 0.06878481 -1.2072772 0.19941977 0.46896353 -0.0517224 -0.28321415
0.108109385 0.11408791 -0.28039718 0.19365235 2.1438951 -0.14669031 -0.06530247 0.087092645
