Data/best_random_params_5.pth (torch, 15544 bytes, 3 tensors)

linear1.weight f4 [64, 50]
0	0x3dc2ee82	0.09518148
1	0xbd59e948	-0.05320099
2	0xbea66b6c	-0.3250383
3	0x3b820e5e	0.003968998
4	0xbe9aa833	-0.3020645
5	0x3e9285db	0.2861775
6	0xbdac24d0	-0.08405459
7	0xbd9dc059	-0.07702703
8	0x3e1babf0	0.15202308
9	0xbe98c11e	-0.29834837
10	0x3df6781c	0.12034628
11	0xbe8cba77	-0.2748601
12	0xbe4e1bed	-0.2012784
13	0xbe1fcff5	-0.15606673
14	0xbe6ea9ea	-0.23307005
15	0x3da68bca	0.081321314
16	0xbecbb468	-0.39786077
17	0xbc73f973	-0.014891016
18	0xbec3e9bd	-0.38264266
19	0x3c5855ea	0.013204077
20	0xbe670bee	-0.22563145
21	0x3f101a16	0.56289804
22	0x3d88e0f4	0.066835314
23	0x3f875dc9	1.0575496
24	0xbdaf1fb4	-0.08550969
25	0xbfbe2738	-1.4855719
26	0x3d1854f8	0.037190408
27	0xbf1cc53b	-0.6123845
28	0x3ddc4273	0.10754862
29	0x3d69511f	0.05696213
30	0x3c84886c	0.016178332
31	0x3d85afd5	0.06527678
32	0xbd6920cb	-0.05691604
33	0x3a8bddfa	0.0010671013
34	0xbe18f28d	-0.14936276
35	0x3e1a7586	0.15083894
36	0x3ddcf2dc	0.10788509
37	0x3fa417d7	1.2819775
38	0xbe74dc87	-0.2391225
39	0xbde864f3	-0.113473795
40	0xbd71d6ac	-0.059042618
41	0xbf66ae85	-0.90110046
42	0x3de2a2a6	0.11066179
43	0x3d79c890	0.060982287
44	0x3e9e396e	0.3090319
45	0x3de26aab	0.110555016
46	0x3eaff81a	0.34368974
47	0xbd2c504e	-0.042068772
48	0x3c6bf7a0	0.0144023
49	0xbd09bfb6	-0.033630095
50	0xbd9fbd84	-0.07799819
51	0xbd88b6dd	-0.066755034
52	0xbddd22fc	-0.10797688
53	0xbccf0a6e	-0.025273528
54	0xbd5b3d73	-0.0535254
55	0xbe641895	-0.22275002
56	0x3d8b220c	0.06793603
57	0x3d4a61ce	0.04940968
58	0x3e4f1604	0.20223242
59	0xbdb3d893	-0.08781543
60	0xbd2398cf	-0.03994065
61	0xbcb702f8	-0.022340283
62	0x3e763449	0.24043383
63	0xbdc81dc9	-0.09771306
64	0xbd1322b7	-0.03592178
65	0x3e13bcb8	0.14427459
66	0xbda78c4e	-0.08181058
67	0x3cfa775f	0.030574499
68	0x3d1ec5b9	0.03876278
69	0x3e4e4c04	0.20146185
70	0x3e3ee741	0.18642904
71	0xbd18b58e	-0.03728252
72	0x3e8ff51b	0.28116688
73	0x3d228afd	0.03968333
74	0x3d92ae4a	0.07162149
75	0x3ca8477d	0.0205419
76	0x3e72e904	0.23721701
77	0x3e2d3f5d	0.16918702
78	0xbc5eac3d	-0.0135908695
79	0xc00caaeb	-2.197932
80	0xbd93ad5e	-0.072108015
81	0x3c54c555	0.012986501
82	0xbcda9984	-0.02668453
83	0xc01cb07a	-2.4482713
84	0xc044c0b0	-3.0742607
85	0xbc5d65d6	-0.013513049
86	0x3e0842a9	0.13306679
87	0x3d2c16ba	0.04201386
88	0xbd888e25	-0.06667737
89	0x3d0924a6	0.033482216
90	0x3ea26236	0.31715554
91	0x3df71c03	0.1206589
92	0xbd348650	-0.044073403
93	0x3e0b1ed2	0.13585976
94	0x3e070914	0.13187057
95	0x3d9cd762	0.076582685
96	0x3dd050c9	0.101716585
97	0x3ed4d3f6	0.41567963
98	0x3ca2b560	0.019861877
99	0xbb1a7d09	-0.0023573062
100	0xbdd5ca9c	-0.10439035
101	0x3f6b49c9	0.9190946
102	0x3e828e06	0.2549898
103	0x3b2e40ca	0.002658891
104	0xbe226451	-0.1585858
105	0x3f9e8a56	1.2385967
106	0xbe025d2f	-0.12730859
107	0x3f2e725b	0.6814324
108	0x3f388df0	0.7209158
109	0x3eaecde9	0.34141472
110	0xbeed2169	-0.46314552
111	0xbdd0efc9	-0.102019854
112	0xbf37ee59	-0.71848065
113	0xbf4a9acc	-0.7914245
114	0x3eb45107	0.3521807
115	0x3ecbd6f2	0.39812428
116	0x3f34f4cd	0.70686036
117	0x3f15cf26	0.5851921
118	0xbd61a882	-0.055092342
119	0xbf358b11	-0.70915323
120	0xbef61306	-0.4806139
121	0x403c514c	2.942462
122	0xbf80dd76	-1.0067585
123	0xbf059e7e	-0.52194965
124	0xbd87e3b4	-0.06635228
125	0xbf889e20	-1.0673256
126	0xbf349052	-0.70532715
127	0x3d441c5a	0.0478786
128	0xbed5a6e6	-0.41728896
129	0x3f96947b	1.1764063
130	0x3f40ad79	0.752647
131	0xbf0492dd	-0.51786596
132	0x3f32b5c1	0.69808584
133	0xbfef5935	-1.8699099
134	0xc03c63e6	-2.9435973
135	0xbf8731a6	-1.0562027
136	0xc01629dd	-2.3463051
137	0xbf3e9433	-0.74444884
138	0x40a1390c	5.0382137
139	0x3ec56a6b	0.38557753
140	0xc04b1d68	-3.1736698
141	0x3f687f7f	0.90819544
142	0x3dc11be4	0.09429148
143	0xbfad0e56	-1.352
144	0xbf2c5302	-0.6731416
145	0xbf3edac9	-0.7455259
146	0xbccef277	-0.0252621
147	0xc00988e2	-2.1489797
148	0x3d4cac74	0.04996915
149	0xbf93f79e	-1.1559942
150	0x3de2e11a	0.11078091
151	0x3df00705	0.11720089
152	0xbe5b0aa5	-0.2139078
153	0x3fa1f23c	1.2652049
154	0x3f6029a9	0.8756357
155	0x3f543d3b	0.8290593
156	0xbca4ca60	-0.020116031
157	0xbe12da5a	-0.14341107
158	0xbeabbcd2	-0.33542496
159	0xbcb24b77	-0.0217645
160	0x3f0b955c	0.5452478
161	0xbf19ee06	-0.6012882
162	0xbfc314f4	-1.5240769
163	0x3faa0a35	1.3284365
164	0x3faf1f3b	1.3681406
165	0xc01925c6	-2.3929305
166	0xbe9f467a	-0.31108457
167	0xbf08bc19	-0.53412014
168	0xbf4433cd	-0.7664154
169	0xbf8ddeee	-1.1083658
170	0xbf624bd7	-0.8839697
171	0x3fee491c	1.8616061
172	0xbef1373a	-0.47112447
173	0xbe9d9714	-0.30779326
174	0xbdb939f4	-0.09044257
175	0xbca5d23f	-0.020241855
176	0xbf6d6a11	-0.9273997
177	0xc032b795	-2.792455
178	0x3f176ba5	0.5914863
179	0xbe98aabe	-0.29817766
180	0x3f52252d	0.82087976
181	0xbcbc23e0	-0.022966325
182	0x4000254e	2.002277
183	0xbf9fbe6f	-1.2479991
184	0xbf3fa346	-0.7485851
185	0x3cb9080a	0.022586841
186	0xbf805862	-1.0026972
187	0xbcfc7c91	-0.030821117
188	0x3f387aa1	0.72062117
189	0x3c76c625	0.01506189
190	0xbfca00b0	-1.578146
191	0xbf69a726	-0.91270673
192	0xbdd4b58c	-0.1038619
193	0xbfb5ebf9	-1.4212638
194	0xbf22afbf	-0.6354942
195	0xbf978835	-1.1838442
196	0xbf817bcd	-1.0115906
197	0xc00bf08b	-2.1865566
198	0x3c3c8950	0.011507347
199	0xbf99f7de	-1.2028768
200	0x3d1f64ac	0.038914368
201	0x3e91b94d	0.28461686
202	0x3ea00b25	0.31258503
203	0x40078412	2.117436
204	0x3f8961d3	1.0732979
205	0x3c87d107	0.016579164
206	0xbd70fbba	-0.058833815
207	0x3db9697d	0.090533234
208	0xbe35ef3c	-0.17767042
209	0x3e93ba84	0.28853238
210	0x3e0294fd	0.12752147
211	0x3e632c61	0.22184898
212	0xbf97e612	-1.1867087
213	0xbec9128d	-0.39271966
214	0xbdfdecfd	-0.123987176
215	0xbff8b324	-1.9429669
216	0xbe674570	-0.22585082
217	0xbea7a395	-0.3274199
218	0x3d9ea234	0.077457815
219	0xc06088f6	-3.5083594
220	0xbfe3f2f5	-1.780852
221	0xbe8b98e4	-0.27265084
222	0xbf24bae7	-0.6434769
223	0xbee969de	-0.45588583
224	0xbdd8115a	-0.105501845
225	0xbf522a62	-0.8209592
226	0xbf693b2e	-0.91105926
227	0xbfe30e6a	-1.7738774
228	0x3e73e82b	0.23819034
229	0xc06e70c3	-3.7256324
230	0xbe87083b	-0.26373467
231	0xbf48746a	-0.78302634
232	0xbee82b63	-0.453456
233	0xc0885be8	-4.261219
234	0xc05f6a98	-3.490881
235	0xbf6c46d5	-0.9229558
236	0xbfd55fe5	-1.666989
237	0xbdda789a	-0.10667534
238	0x3ff4e25c	1.9131579
239	0xbf4e7a36	-0.8065523
240	0xbfa318c3	-1.2741932
241	0x3de6d291	0.11270631
242	0xbc18c470	-0.009324178
243	0xbf57673b	-0.8414189
244	0xbfe58ab6	-1.7932956
245	0xbf568319	-0.8379379
246	0xbf096746	-0.5367321
247	0xbf7196e7	-0.94370884
248	0x3d982b2e	0.07430111
249	0x3c93b0e6	0.018028688
250	0xbd8a5a48	-0.06755501
251	0x3f9a38b3	1.2048553
252	0x3f5b941d	0.8577288
253	0x3f9866f1	1.1906415
254	0x3f95777f	1.1677092
255	0x3e930356	0.28713483

linear1.bias f4 [64]
0	0x3f667f2b	0.9003779
1	0x401d330a	2.4562402
2	0xc058d994	-3.38828
3	0xbfb00ed7	-1.3754529
4	0x3ea4f063	0.3221465
5	0xc0135791	-2.3022196
6	0x3fdaae7f	1.7084502
7	0xbfc7781a	-1.5583527
8	0x3f3c7c7c	0.7362745
9	0xbfa86eab	-1.3158773
10	0xbfb4fdb0	-1.4139919
11	0xbff0f6d4	-1.8825326
12	0x401446ab	2.3168132
13	0x3e7b2009	0.24523939
14	0x3f94aeea	1.161588
15	0xbfe094e5	-1.7545439
16	0xbfe56bc9	-1.7923518
17	0xbfd5210e	-1.6650712
18	0xbf6766ea	-0.9039141
19	0xc01fb2cc	-2.495288
20	0x3f9c23de	1.2198446
21	0xbfe3b52b	-1.7789663
22	0x3edcf8fd	0.43158713
23	0xbe872b68	-0.26400304
24	0xc056af62	-3.3544545
25	0xbf2f7d35	-0.68550426
26	0xbfbbe203	-1.4678348
27	0xc029521e	-2.645637
28	0xc007bb79	-2.1208174
29	0xc013a37d	-2.3068535
30	0xbee02e5c	-0.4378537
31	0xbfdaf8f2	-1.7107222
32	0xbfa70d8e	-1.3051012
33	0x40035737	2.0521982
34	0xbfbd2e0f	-1.4779681
35	0xc014abe6	-2.3229918
36	0x3de02460	0.10944438
37	0x3fbf27f3	1.4934067
38	0xc04d5277	-3.2081583
39	0xc03dfb48	-2.968462
40	0xc0137a24	-2.3043299
41	0x3fbf0070	1.4922009
42	0xc05f8eef	-3.493099
43	0xbe4953e4	-0.19660908
44	0xbfbe6b51	-1.48765
45	0xc03f83a0	-2.9924088
46	0xbfc2127b	-1.516189
47	0x4063800c	3.5546904
48	0x3fe8686f	1.8156871
49	0xc056825f	-3.3517072
50	0xbfe56a86	-1.7923133
51	0x401c4361	2.4416125
52	0xbfeb79b1	-1.8396512
53	0xc02826dc	-2.6273718
54	0xbfe8329a	-1.8140442
55	0xc0148a18	-2.3209286
56	0xbf7e3680	-0.9930191
57	0xbf8849b4	-1.0647492
58	0xc052a6d4	-3.2914324
59	0x3ed932bc	0.4242152
60	0xbf046a4f	-0.51724714
61	0xbff105e6	-1.8829925
62	0xbeb3242d	-0.34988537
63	0xc03afac1	-2.9215548

output.weight f4 [1, 64]
0	0x3d5958b4	0.05306311
1	0x3d95968b	0.073041044
2	0xbfe04b00	-1.7522888
3	0xbef82a00	-0.48469543
4	0x3e6f1648	0.23348343
5	0x3f12abd7	0.57293457
6	0xbd49f8cd	-0.04930954
7	0x3ea1e21d	0.31617823
8	0xbe53a6ee	-0.20669147
9	0x3f0d00f0	0.55079556
10	0x3e9c14c5	0.30484596
11	0xbe46cc93	-0.19413976
12	0xbe42316d	-0.18964167
13	0xbdb1726c	-0.08664402
14	0xbdce5217	-0.10074251
15	0x3e793e2a	0.2434012
16	0xbd72d512	-0.05928523
17	0x3e359199	0.17731322
18	0xbeb304ee	-0.349647
19	0x3e277914	0.16354781
20	0x3d8ce372	0.06879319
21	0x3f1fd33f	0.6243171
22	0xbd8af866	-0.067856595
23	0x3e4579af	0.192847
24	0x3e97656d	0.2956957
25	0xbed796fc	-0.4210738
26	0xbf3cce94	-0.73752713
27	0x3dd42898	0.10359305
28	0xbf011b4f	-0.50432295
29	0xbf0eb82c	-0.55749774
30	0x3d68797d	0.056756485
31	0x3d4b278b	0.049598258
32	0x3ef8e886	0.486149
33	0xbdb65b89	-0.08904178
34	0x3dbe30ef	0.09286677
35	0x3ee8d0ba	0.45471746
36	0x3dd7c521	0.10535646
37	0xbd3d4cc4	-0.046215788
38	0xbfb322d6	-1.3995006
39	0x3e7bb12a	0.24579301
40	0x3e9e6c82	0.3094216
41	0x3dbe2e63	0.09286191
42	0xbf39e2e1	-0.72611815
43	0xbd942d23	-0.07235172
44	0x3dba7723	0.09104755
45	0x3e72e5e3	0.23720507
46	0xbd9ba334	-0.07599488
47	0x3e2a9c9a	0.16661301
48	0x3df63791	0.12022317
49	0xbf728109	-0.9472814
50	0xbeab0fc0	-0.33410454
51	0xbda4177a	-0.0801229
52	0x3ec3df87	0.38256475
53	0xbf4242b1	-0.75883013
54	0xbe9bc77e	-0.30425638
55	0xbf26e47e	-0.651924
56	0x3e8aab41	0.2708378
57	0xbdebc574	-0.115122706
58	0x3e90bc67	0.2826874
59	0xbec86122	-0.39136606
60	0x3ea0c792	0.3140226
61	0xbf24b724	-0.6434195
62	0xbef42549	-0.47684696
63	0x3ea865fc	0.32890308
