Data/best_random_params_4.pth (torch, 15544 bytes, 3 tensors)

linear1.weight f4 [64, 50]
0	0x3c92b9c8	0.017910853
1	0x3d39e986	0.04538872
2	0xbc13330b	-0.008984338
3	0x3eb476b5	0.35246816
4	0x3ef72e46	0.4827749
5	0xbe285f6e	-0.16442654
6	0xbdd823fa	-0.10553737
7	0x3d1d5c73	0.038418245
8	0xbe310b87	-0.17289554
9	0xc05af725	-3.4213345
10	0x3dc2e440	0.095161915
11	0x3ee10102	0.4394608
12	0x3da822c9	0.0820976
13	0x3e09a080	0.13440132
14	0xbdb53904	-0.088487655
15	0xbeb377c6	-0.35052317
16	0x3e752897	0.23941265
17	0x3e079448	0.13240159
18	0x3ec15df6	0.37767
19	0xbe988e5a	-0.29796106
20	0x3df88966	0.12135582
21	0x3e03916d	0.12848444
22	0xbf0fbaf7	-0.5614466
23	0x3e41ba6a	0.18918768
24	0xbd9ac2f5	-0.07556716
25	0xbe7780f6	-0.24170288
26	0xbee6b1fa	-0.4505766
27	0x3f00027f	0.5000381
28	0xbd00f767	-0.03148594
29	0xbf1b0179	-0.6054912
30	0xbe020f6c	-0.12701195
31	0xbe62577f	-0.2210369
32	0xbdda34da	-0.10654612
33	0xbeebd79b	-0.4606293
34	0xbead1434	-0.33804476
35	0xbf4f0cd1	-0.8087893
36	0xbf5e4f7e	-0.86840045
37	0x3f25cc31	0.64764696
38	0x3d9a14a6	0.075234696
39	0xbf04c6e3	-0.5186598
40	0xbf115e8b	-0.56784886
41	0x3edd7b93	0.43258342
42	0x3de2db9e	0.11077045
43	0xbf495968	-0.7865205
44	0xc0062931	-2.0962641
45	0xbec4891d	-0.3838586
46	0xbe9ccd67	-0.3062546
47	0xbf146e3f	-0.5798072
48	0xbdba4fb7	-0.09097236
49	0xbc450db2	-0.012027191
50	0xbc874218	-0.016511008
51	0xbd43a15a	-0.0477613
52	0x3d87e516	0.066354915
53	0x3d5b8c9f	0.053600904
54	0xbcada6d5	-0.021197716
55	0xbe01054e	-0.1259968
56	0x3d738548	0.05945328
57	0xbd56018e	-0.052247576
58	0x3c998f7d	0.018745178
59	0x3cc243ba	0.023713935
60	0xbdb40b3b	-0.087912045
61	0xbdb5aaf8	-0.088705
62	0xbf468f63	-0.7756254
63	0xbe13e4be	-0.14442727
64	0x3e4a9be6	0.19786033
65	0x3d789a39	0.060693953
66	0xbadd1ea5	-0.0016870095
67	0x3ca79341	0.020455958
68	0xbcda5d21	-0.026655735
69	0x3d68914b	0.056779187
70	0x3e2e4ea9	0.17022194
71	0x3e550904	0.2080422
72	0x3d84415f	0.06457781
73	0xbd78c443	-0.060734045
74	0x3d561954	0.05227025
75	0xbd6e5b40	-0.05819249
76	0x3f2219fd	0.63320905
77	0x3d21c1c6	0.039491437
78	0xbce462ed	-0.027879203
79	0x3e1557f3	0.14584331
80	0xbbc0737e	-0.0058731427
81	0x3d950ae9	0.072774716
82	0x3eaba955	0.33527628
83	0xc09a74dc	-4.826765
84	0xbe4d5c2d	-0.20054694
85	0xbd50538c	-0.050860927
86	0x3d686892	0.05674035
87	0xbd1ecce4	-0.038769618
88	0x3cfa1dfe	0.03053188
89	0xbd27bd8e	-0.040952258
90	0x3f26a17c	0.65090156
91	0xbd7a2ab0	-0.061075866
92	0xbda11a04	-0.0786629
93	0x3db37fbb	0.08764597
94	0xbd3ae50e	-0.0456286
95	0xbd3f1f97	-0.046660986
96	0x3cad0ece	0.021125223
97	0x3f271963	0.6527311
98	0x3da67700	0.08128166
99	0xbabf4b0f	-0.0014594513
100	0xbdea659b	-0.11445161
101	0x3d4b710b	0.049668353
102	0x3f79cbe8	0.9757676
103	0x3fc3e011	1.5302755
104	0x3efe4f2f	0.49669787
105	0x3dd88e42	0.105740085
106	0xbd9cda97	-0.0765888
107	0x3fdc76c3	1.7223743
108	0xbc60d98b	-0.013723741
109	0x3ebb130c	0.3653797
110	0x3e8e59a4	0.27802765
111	0x3f916e71	1.1361829
112	0xc08ab152	-4.3341455
113	0xbfe511ae	-1.789602
114	0x3f30867f	0.68955225
115	0xbf2e37e4	-0.6805403
116	0x3ecfc30d	0.405785
117	0xbd83afec	-0.06430039
118	0x3eea8fce	0.4581284
119	0xbea3dbb7	-0.32003567
120	0xc078ca7d	-3.887359
121	0x40420fb9	3.0322096
122	0xbedace4e	-0.42735523
123	0xbe60221d	-0.21888013
124	0x3de68fce	0.11257897
125	0xbf6b1227	-0.91824573
126	0xbf3d7b2d	-0.74016076
127	0xc066f5e7	-3.6087587
128	0x3ed90dc7	0.42393324
129	0xbf27246d	-0.65289956
130	0xbccafa30	-0.024777502
131	0xbecca30c	-0.39968145
132	0xbd8a7cc4	-0.067620784
133	0xbf659235	-0.8967622
134	0xbeea34e9	-0.45743492
135	0xbe114d1b	-0.1418957
136	0xbf097ad6	-0.5370306
137	0xbeae9fa5	-0.34106174
138	0xbf3d70e1	-0.74000365
139	0xbebc49ae	-0.36774963
140	0xbf7715b6	-0.96517503
141	0x3cb65cee	0.02226111
142	0x3ba720c0	0.0051003397
143	0xbfca6809	-1.5812999
144	0xbf835cb3	-1.0262665
145	0xbfb647b8	-1.4240637
146	0xbfd7cfb5	-1.6860262
147	0xbffa80e9	-1.957059
148	0x3c3e6770	0.011621341
149	0xbff5f1a9	-1.9214374
150	0xbdf1dc99	-0.11809654
151	0x3ee0d4c0	0.43912315
152	0x3f2f2e4f	0.68430036
153	0x3e447c9c	0.1918816
154	0xbd932538	-0.07184833
155	0x3f5e1946	0.86757314
156	0x39ab7a00	0.0003270656
157	0xbf8cbef6	-1.0995777
158	0xbdcab212	-0.098972455
159	0x3f6b5ffd	0.9194334
160	0x3f65bf69	0.89745194
161	0xbe697947	-0.2280017
162	0xc080acee	-4.0211096
163	0x3fbddfd7	1.4833935
164	0x3fb89cd0	1.4422855
165	0xbf866473	-1.0499405
166	0xbe0ed056	-0.13946661
167	0xbe3f06e9	-0.1865498
168	0xbe6eeed9	-0.233333
169	0xbdf1eed3	-0.1181313
170	0xc01d6827	-2.459482
171	0x3f1ab844	0.6043742
172	0xbe2ea89a	-0.17056504
173	0xbf1ac059	-0.6044975
174	0x3daa90ee	0.083284244
175	0xc01af910	-2.4214516
176	0xbf464cfa	-0.77461207
177	0xbfe3528a	-1.7759564
178	0x3fb36326	1.4014633
179	0xbf5dae3c	-0.86593986
180	0x3e8cdf55	0.2751414
181	0xbef0a303	-0.46999368
182	0xbeab0da8	-0.33408856
183	0xbf885af1	-1.0652753
184	0x3e5d3c2a	0.21604982
185	0xbfd3cd45	-1.6547018
186	0xbf8e65fb	-1.1124872
187	0xbe8d877a	-0.27642423
188	0xbfcd8271	-1.6055433
189	0xbfa38d8a	-1.2777569
190	0xbfb882ad	-1.4414879
191	0x3f6da8c8	0.92835665
192	0x3df32d9a	0.11873932
193	0xbf50c879	-0.81555897
194	0xbe87c35e	-0.2651624
195	0xbf558adc	-0.8341501
196	0xbe7fc1c3	-0.24976258
197	0xc009d8f8	-2.1538677
198	0xbcdb502c	-0.026771627
199	0xbffe83b0	-1.9883938
200	0x3e07c6cf	0.13259433
201	0x406ad0f8	3.6690044
202	0x3fa91623	1.320988
203	0x3f9cf522	1.2262309
204	0x3f7c9642	0.98666775
205	0x3f16a3c7	0.58843654
206	0x3e0f6165	0.14001997
207	0x402b0811	2.6723673
208	0xbf4e8311	-0.8066874
209	0x3f546ec0	0.8298149
210	0xbf22af14	-0.635484
211	0x3f213cb0	0.62983227
212	0xbf30af5a	-0.69017565
213	0xbfc7047a	-1.5548241
214	0xbeedaa5f	-0.46419045
215	0xbfa331a1	-1.274952
216	0x3f468f26	0.7756218
217	0x3e5686d2	0.20949867
218	0x3e2dfb9b	0.16990511
219	0xbfe68a4f	-1.8010958
220	0xc0549f3b	-3.3222187
221	0x3f750291	0.9570704
222	0xbf100041	-0.5625039
223	0xbe91e168	-0.28492284
224	0xbd08640c	-0.033298537
225	0xbe05df96	-0.13073573
226	0xbfc16331	-1.5108396
227	0xc0f39d7f	-7.6129756
228	0xbd027473	-0.031849336
229	0xc091c902	-4.555787
230	0x3cdd74ce	0.027033236
231	0xbf937fe7	-1.1523408
232	0x3e0d02dc	0.13770622
233	0xbf703709	-0.93833977
234	0xbff31793	-1.8991569
235	0x40159251	2.3370554
236	0xc030e6c2	-2.7640843
237	0xbf8b6491	-1.0890065
238	0xbf7d177e	-0.9886397
239	0xbfb83227	-1.4390305
240	0xc035e146	-2.8418746
241	0xbfed291d	-1.8528172
242	0xbdb536c2	-0.08848335
243	0xc0718748	-3.773882
244	0xc00c2677	-2.1898477
245	0xc038c5d5	-2.8870747
246	0xbfbb1be0	-1.4617882
247	0xc07cad69	-3.948084
248	0x3d224b24	0.03962244
249	0x3df1678e	0.117873296
250	0x3d8551ec	0.06509766
251	0x3f0fc4e1	0.5615979
252	0x3e8a7005	0.2703859
253	0xbe96f554	-0.29484046
254	0xbe8941de	-0.26808065
255	0x3f0a611d	0.54054433

linear1.bias f4 [64]
0	0xc0921179	-4.564633
1	0x4033fc1a	2.812262
2	0xbde79857	-0.113083534
3	0xc0283a3e	-2.6285548
4	0x3f356efa	0.7087246
5	0xc0e4ae6f	-7.146293
6	0xc0cbcef6	-6.369014
7	0xbfe16cd8	-1.7611341
8	0xc0960e11	-4.689217
9	0x40187d87	2.3826616
10	0xc095c6e4	-4.6805286
11	0x40636bfb	3.5534656
12	0xc06631b5	-3.5967839
13	0xbfe02127	-1.7510117
14	0xc0cbfc14	-6.3745213
15	0xc06511fa	-3.5792222
16	0xc046aded	-3.1043656
17	0x3ec3401d	0.38134852
18	0xc05a4e7a	-3.4110398
19	0xc081e081	-4.0586553
20	0xbfdeb0f9	-1.7397758
21	0x3f298cfd	0.66230756
22	0x4014d41f	2.3254468
23	0x4018d80b	2.3881862
24	0x3f78f483	0.97248095
25	0xc080f72f	-4.030174
26	0xc0a2069b	-5.0633063
27	0xc0847061	-4.138718
28	0xc0d8acde	-6.771102
29	0xbf5857cb	-0.8450896
30	0x3f1f5eee	0.62254226
31	0x3fc0711b	1.5034517
32	0xc026cd1a	-2.6062684
33	0xc07fc7bb	-3.9965656
34	0xc0480d51	-3.1258128
35	0xc01add5d	-2.419761
36	0xc0a65583	-5.1979384
37	0xc015adde	-2.338737
38	0xc0c1becd	-6.054541
39	0xc01bd280	-2.434723
40	0xbcfe2497	-0.031023307
41	0x3ed10de0	0.40830898
42	0x4026eb57	2.608114
43	0xbfc446eb	-1.5334142
44	0xc00b1a46	-2.1734786
45	0x3e9fa857	0.3118312
46	0xc05cbebc	-3.4491415
47	0x3f647445	0.89239913
48	0xc04b8035	-3.1797001
49	0xc0364253	-2.847798
50	0x402486b3	2.5707214
51	0xc0fe31bd	-7.9435716
52	0xc0a6fd4f	-5.2184215
53	0xbfb46eac	-1.4096274
54	0xbeb3395b	-0.35004696
55	0xc0ae90b4	-5.455164
56	0xc0522ee7	-3.2841127
57	0xc080ee0b	-4.029058
58	0xc088a7af	-4.270469
59	0xbfeb48b7	-1.8381566
60	0xc0718407	-3.7736833
61	0x3fea826d	1.8321053
62	0x3f58f58a	0.8474966
63	0xbfb57e69	-1.4179202

output.weight f4 [1, 64]
0	0x3e31eaed	0.17374773
1	0x3de89401	0.113563545
2	0x3ecd6220	0.40113926
3	0xbf10a627	-0.5650353
4	0xbe87e2ec	-0.26540315
5	0xbf100b7f	-0.5626754
6	0xbeea491f	-0.45758912
7	0xbde81703	-0.11332514
8	0x3e524638	0.20534599
9	0xbdb4fa55	-0.088368095
10	0x3e831a3f	0.25605962
11	0x3dbfdba7	0.09368067
12	0x3e665b7a	0.22495833
13	0xbf1cad7d	-0.6120222
14	0xbf8d85bd	-1.1056439
15	0x3e2e7aab	0.17038982
16	0xbe98d2ba	-0.29848272
17	0x3d8c5ee2	0.06854035
18	0x3d96825a	0.07349081
19	0xbf0687d7	-0.52551025
20	0x3f441e1e	0.76608455
21	0x3db48412	0.08814253
22	0xbde12df7	-0.10995095
23	0xbdd356eb	-0.10319313
24	0x3d91edf2	0.071254626
25	0x3e7f58e8	0.24936259
26	0xbeb111b6	-0.34583825
27	0x3e8b264c	0.27177656
28	0xbf3704d5	-0.7149175
29	0x3e87d972	0.26533085
30	0xbdbfd8fb	-0.093675576
31	0xbe056351	-0.13026167
32	0xbe8fbdaf	-0.28074405
33	0x3e1a6298	0.15076673
34	0xbef08db5	-0.46983114
35	0xbd38e302	-0.045138367
36	0xbf410623	-0.7539999
37	0x3d84f50f	0.06492054
38	0xbf1346a1	-0.57529646
39	0xbf1ff3ba	-0.6248127
40	0xbf078802	-0.52941906
41	0x3d913fe1	0.07092262
42	0x3d65bd07	0.056088474
43	0x3e8c52f5	0.2740704
44	0xbe985010	-0.29748583
45	0x3dd995b8	0.1062426
46	0xbe9a9578	-0.3019216
47	0xbdab491d	-0.083635546
48	0xbf030749	-0.5118299
49	0xbeed26fc	-0.46318805
50	0x3dd0b3da	0.10190554
51	0xbf833738	-1.0251226
52	0x3e99dc06	0.30050677
53	0x3ecf9f74	0.4055134
54	0xbd9d04cc	-0.076669306
55	0xbe559efb	-0.20861427
56	0x3e2fabef	0.17155431
57	0x3dffc9b5	0.124896444
58	0xbecaac16	-0.39584416
59	0x3e12527c	0.14289278
60	0x3fcd69dd	1.6047932
61	0xbdf1c569	-0.11805231
62	0xbd518a37	-0.051157203
63	0x3ded3b3b	0.11583563
