Data/best_params_29.pth (torch, 15496 bytes, 3 tensors)

linear1.weight f4 [64, 50]
-0.070846274 -0.052202147 -0.06756289 -0.0065698572 0.0049064383 -0.025578678 0.07809025 -0.028828723
-0.03165795 0.08492382 0.049848948 0.038343612 -0.03531486 0.02122306 0.03543237 -0.020020328
-0.61409676 0.014458195 0.12912618 -0.025707621 0.034637284 -0.13237317 0.024881218 0.06451485
-0.040923074 0.23513655 0.028563773 0.13755287 -0.013836585 0.03361586 0.11062917 -0.019730458
-0.94711876 -0.020789923 0.019035168 0.11033807 0.25626755 0.19091286 0.16261779 0.114783525
0.035793506 0.18972257 -0.034139656 0.04209432 0.16612174 -0.0013872518 0.12889305 0.023401374
0.08565369 0.0045612277 0.08156024 0.27359363 -0.07123493 0.21153112 0.44686824 0.16724256
0.020435885 0.3992568 0.12142182 -0.06189072 -0.21287286 -0.19720438 0.18381286 -0.56775147
0.34685892 0.01431911 -0.036349606 0.05283875 -0.8613804 0.058611076 0.068712346 0.21343912
-0.07002423 0.013986926 0.11396538 0.24853191 -0.076616034 -0.4007888 -0.034626864 0.22288589
-0.877316 -0.067345016 -0.7463182 -0.014470452 -0.2068701 0.19663091 -0.20576158 -0.20576379
0.14028497 -0.3493468 -0.14837196 0.13885406 -0.053119883 -0.27536508 -0.2527575 -0.017313488
-0.17759071 -0.13173018 -0.005038336 -0.057928294 -0.042783737 0.09046885 -0.05641554 0.062369946
0.05238993 0.09247981 -0.08160439 0.066932164 0.08174151 -0.18378897 -0.21399283 -0.026208397
0.13737378 -0.14798741 0.17549303 0.09007357 -0.20044608 -0.030975342 -0.04395016 -0.0031896764
0.0106523195 -0.09607623 -0.04723595 -0.013387754 -0.023964494 -0.11574127 -0.058394827 -0.014741746
0.19762897 -0.017089209 -0.10027111 -0.05966359 -0.2847976 -0.0044392743 -0.67880213 -0.13219386
-0.0072723567 -0.8423939 -0.7144264 -0.21595961 0.15836395 -0.15126894 -0.057105422 -0.085308366
-0.37461862 -0.20216167 -0.15001285 -0.05842408 0.14102615 -0.1598074 0.112382814 0.049320344
0.42556572 0.059369497 0.008452251 0.09143216 -0.10398963 0.083160676 0.058237623 0.062416755
-0.09919296 -0.055939663 0.10468774 -0.11149305 -0.12638912 0.16651633 -1.100555 0.0017508967
-0.0719941 0.015699094 -0.010720485 -0.10582553 -0.014931203 0.41261777 -0.10156189 -0.103849456
-0.025370333 -0.033730507 0.10672293 0.0015240221 -0.59301865 -0.00998466 -0.814465 0.03302611
-0.00080756494 -0.14831908 -0.06348607 -0.15207967 -0.061734848 -0.14649302 -0.033133462 -0.09219045
-0.012802571 -0.0712016 -0.35232836 -0.052325662 -0.11535334 -0.083057255 -0.10921213 0.011024447
-0.086593136 0.13529314 0.014882455 0.3566118 0.024833236 0.22236277 -0.12433174 0.014787481
0.072053775 -0.15398657 -0.044709537 -0.0765559 0.26000413 -0.19172637 0.024353854 0.09666792
0.14159153 0.48913774 -0.21009646 0.1654296 -0.13948815 -0.20311914 -0.018918369 -0.16755942
-0.09322742 -0.16286641 -0.13084622 -0.01570166 -0.12857153 0.079965755 -0.21165624 -0.04276912
-0.2543358 -0.024817657 -0.23369849 -0.20521338 -0.13016531 -0.22148721 -0.3145618 -0.3119809
-0.14455399 0.2056026 -0.0004492402 -0.16851911 -0.28958008 -0.2285049 -0.26963782 -0.21749601
-0.041689306 0.00059485267 -0.09485007 -0.00057203823 -0.07825812 -0.0054110587 -0.023066374 -0.011550923
00000000: da17 91bd ebd1 55bd 6a5e 8abd f547 d7bb
00000010: 30c6 a03b 608a d1bc c8ed 9f3d 372a ecbc
00000020: c4ab 01bd 8aec ad3d 692e 4c3d 310e 1d3d
00000030: 51a6 10bd fcdb ad3c 8821 113d ac01 a4bc
00000040: 7235 1dbf 11e2 6c3c a739 043e ca98 d2bc
00000050: d3df 0d3d d58c 07be b2d3 cb3c 5d20 843d
00000060: f49e 27bd a3c7 703e 93fe e93c a9da 0c3e
00000070: d8b2 62bc c9b0 093d 8c91 e23d c5a1 a1bc
00000080: 6076 72bf a14f aabc a4ef 9b3c edf8 e13d
00000090: 8035 833e a97e 433e 4785 263e a013 eb3d
000000a0: 369c 123d a246 423e 06d6 0bbd 186b 2c3d
000000b0: d11b 2a3e 72d4 b5ba 8afc 033e 3db4 bf3c
000000c0: 346b af3d 5a76 953b 0e09 a73d 7714 8c3e
000000d0: 9ee3 91bd 9d9b 583e eacb e43e a241 2b3e
000000e0: 2869 a73c 636b cc3e 01ac f83d 2081 7dbd
000000f0: 58fb 59be f2ef 49be 7039 3c3e 2958 11bf
00000100: 7e97 b13e b39a 6a3c 53e3 14bd 726d 583d
00000110: 6d83 5cbf 2b12 703d 0fb9 8c3d c98f 5a3e
00000120: dd68 8fbd 6b29 653c ae66 e93d 267f 7e3e
00000130: dee8 9cbd 3134 cdbe e6d4 0dbd 333c 643e
00000140: c897 60bf 2fec 89bd b60e 3fbf 7a15 6dbc
00000150: c1d5 53be 9d59 493e 2ab3 52be beb3 52be
00000160: dda6 0f3e 95dd b2be d2ee 17be c22f 0e3e
00000170: 3c94 59bd a7fc 8cbe 6e69 81be 04d5 8dbc
00000180: 57da 35be 47e4 06be a018 a5bb 3846 6dbd
00000190: 003e 2fbd bc47 b93d fb13 67bd a177 7f3d
000001a0: d396 563d 0e66 bd3d 3420 a7bd bb13 893d
000001b0: 1868 a73d 2d33 3cbe f020 5bbe feb2 d6bc
000001c0: b6ab 0c3e 038a 17be 72b4 333e 7e78 b83d
000001d0: bd41 4dbe 00c0 fdbc 1505 34bd e409 51bb
000001e0: 1187 2e3c 9dc3 c4bd 7c7a 41bd 4f58 5bbc
000001f0: 3051 c4bc c209 edbd 6a2f 6fbd 5d87 71bc
00000200: 405f 4a3e abfe 8bbc f15a cdbd cf61 74bd
00000210: fed0 91be 5577 91bb fac5 2dbf d45d 07be
00000220: f34c eebb 20a7 57bf a6e4 36bf 8424 5dbe
00000230: 292a 223e 3fe6 1abe 60e7 69bd 27b6 aebd
00000240: 03ce bfbe 7803 4fbe f89c 19be 174e 6fbd
00000250: 2969 103e 8da4 23be f628 e63d 2104 4a3d
00000260: c0e3 d93e 6e2d 733d 4f7b 0a3c c940 bb3d
00000270: 84f8 d4bd 2550 aa3d 938a 6e3d b6a8 7f3d
00000280: ae25 cbbd fd20 65bd 8766 d63d 7856 e4bd
00000290: 266c 01be 4283 2a3e fcde 8cbf 587e e53a
000002a0: a571 93bd 639b 803c f9a4 2fbc 0ebb d8bd
000002b0: 01a2 74bc a342 d33e aeff cfbd 06af d4bd
000002c0: 72d5 cfbc 0029 0abd 8d91 da3d b2c1 c73a
000002d0: 12d0 17bf b396 23bc c780 50bf 6346 073d
000002e0: c4b2 53ba f5e0 17be fc04 82bd c6ba 1bbe
000002f0: aedd 7cbd 4402 16be f4b6 07bd 59ce bcbd
00000300: e0c1 51bc 25d2 91bd 6264 b4be 6f53 56bd
00000310: 5f3e ecbd ec19 aabd 9caa dfbd e29f 343c
00000320: be57 b1bd 498a 0a3e 8ad5 733c d295 b63e
00000330: 126f cb3c 11b3 633e a4a1 febd 3147 723c
00000340: ee90 933d a8ae 1dbe 5921 37bd 57c9 9cbd
00000350: 431f 853e eb53 44be bc81 c73c d5f9 c53d
00000360: 5ffd 103e 4370 fa3e 8723 57be 6166 293e
00000370: fbd5 0ebe 77fe 4fbe b2fa 9abc b294 2bbe
00000380: 04ee bebd 74c6 26be 8dfc 05be c5a0 80bc
00000390: 41a8 03be 16c5 a33d 6abc 58be ac2e 2fbd
000003a0: 4d38 82be 664e cbbc a84e 6fbe 7523 52be
000003b0: 0e4a 05be 8bcd 62be 3f0e a1be f6bb 9fbe
000003c0: f605 14be 7d89 523e 0088 ebb9 4690 2cbe
000003d0: d743 94be 30fd 69be f80d 8abe 46b7 5ebe
000003e0: 68c2 2abd e3ef 1b3a c140 c2bd d6f4 15ba
000003f0: cb45 a0bd 404f b1bb b1f5 bcbc 1540 3dbc

linear1.bias f4 [64]
0.48712924 -0.5206819 0.3908239 -0.6191359 0.51105124 0.5134777 -0.2184713 -0.13013071
0.25186986 -0.16781239 -0.6681622 -0.08993957 0.14873865 0.403856 0.20974976 0.65348506
-0.2816566 0.7128622 0.35325837 -0.059647158 -0.19089851 0.3184534 0.6239715 0.95639026
-0.63342595 -0.29821202 -0.5927325 0.5192708 -0.010440166 -0.438787 0.33122036 0.2979851
0.32771593 -0.5182242 -0.68730175 0.43938142 0.4798631 0.015950743 0.33910808 -0.13720435
-0.03954576 0.061316613 0.10661806 -0.7108249 -0.2788355 -0.38067332 0.79764694 0.19130027
0.5267388 -0.39945325 -0.5234088 0.026593972 0.5996892 -0.42218438 -0.13756333 0.06496662
-0.040720884 0.26934272 0.51739746 0.82960755 0.5850724 0.67490464 -0.07881718 0.04446448
00000000: 0169 f93e 694b 05bf 121a c83e b17f 1ebf
00000010: 41d4 023f 4673 033f f1b6 5fbe fc40 05be
00000020: 16f5 803e 03d7 2bbe ae0c 2bbf 3d32 b8bd
00000030: f24e 183e 37c6 ce3e a4c8 563e cc4a 273f
00000040: 4b35 90be 237e 363f 48de b43e 9450 74bd
00000050: e67a 43be 530c a33e 99bc 1f3f fed5 743f
00000060: 3428 22bf 3faf 98be 51bd 17bf eeee 043f
00000070: 3b0d 2bbc b1a8 e0be b795 a93e 8191 983e
00000080: 62ca a73e 57aa 04bf 02f3 2fbf 9af6 e03e
00000090: 9eb0 f53e 22ab 823c 939f ad3e 4c7f 0cbe
000000a0: bcfa 21bd 2127 7b3d 925a da3d 9ff8 35bf
000000b0: 87c3 8ebe 9de7 c2be 9732 4c3f 38e4 433e
000000c0: 5bd8 063f 2385 ccbe 1efe 05bf 9adb d93c
000000d0: 3b85 193f 8d28 d8be 67dd 0cbe 380d 853d
000000e0: f1ca 26bd 4ae7 893e 2974 043f 2961 543f
000000f0: 4ec7 153f 8dc6 2c3f e76a a1bd 6320 363d

output.weight f4 [1, 64]
0.33636928 0.9638978 -0.9546603 0.9349468 -0.4887362 0.43881845 0.7052277 0.22818723
0.7286255 0.2756458 -1.4034303 -1.3435817 0.3009685 -0.36101466 -0.39165145 0.18097086
0.31793636 0.5841373 -0.13579205 -0.38858452 0.7077276 -0.55256337 -0.3494727 0.65349585
0.7121788 -0.30927965 0.38916653 0.42693073 0.20801273 0.29252946 -0.16308956 0.25933716
-0.3432625 0.5460232 0.88557297 -0.8511354 -0.55799276 -0.94400305 -0.25062004 0.6553481
0.16693807 0.28040716 0.5638819 1.1033322 1.1034876 1.105934 0.48009458 -0.16257325
-0.57006145 0.7084842 0.59883827 -0.42146775 0.8312934 1.061631 0.33129194 0.91424835
0.30638796 0.29004985 -0.22890289 0.42555746 -0.6588107 -0.46399885 -0.42000777 -0.11163193
00000000: 9838 ac3e 02c2 763f 9e64 74bf ac58 6f3f
00000010: a23b fabe d0ac e03e cd89 343f eaa9 693e
00000020: 3387 3a3f 7221 8d3e 9ba3 b3bf 7cfa abbf
00000030: 8b18 9a3e ead6 b8be 8a86 c8be 6d50 393e
00000040: 8ec8 a23e 068a 153f 120d 0bbe 8df4 c6be
00000050: a32d 353f cb74 0dbf 16ee b2be 814b 273f
00000060: 5a51 363f e759 9ebe d640 c73e aa96 da3e
00000070: 4a01 553e 6cc6 953e f300 27be d7c7 843e
00000080: 1ac0 afbe 2dc8 0b3f e9b4 623f 02e4 59bf
00000090: 9dd8 0ebf 2faa 71bf 4551 80be e5c4 273f
000000a0: d0f1 2a3e 8791 8f3e 905a 103f fd39 8d3f
000000b0: 153f 8d3f 3f8f 8d3f f5ce f53e 9a79 26be
000000c0: 8cef 11bf 385f 353f 774d 193f 9fca d7be
000000d0: a5cf 543f 86e3 873f 199f a93e 2e0c 6a3f
000000e0: e2de 9c3e 6a81 943e 8565 6abe abe2 d93e
000000f0: d1a7 28bf 4291 edbe 420b d7be 489f e4bd
