Data/best_random_params_206.pth (torch, 15624 bytes, 3 tensors)

linear1.weight f4 [64, 50]
0	0x3e074181	0.13208582
1	0x3ca23b9d	0.019803816
2	0xbc885634	-0.016642667
3	0xbcbabeb4	-0.022796012
4	0xbdb72b68	-0.08943826
5	0x3e4cd055	0.20001347
6	0x3e05351f	0.13008545
7	0x3d895915	0.06706444
8	0xbcdfa181	-0.02729869
9	0xbd8dc0e6	-0.06921558
10	0xbc8d7753	-0.017268812
11	0xbddff2ac	-0.10934958
12	0x3c64769e	0.013944296
13	0x3dfa0f73	0.12209978
14	0x3d1ab4d8	0.037770122
15	0x3d0b52ef	0.03401464
16	0xbd802e8e	-0.062588796
17	0xbd5bea1b	-0.053690057
18	0xbdaba171	-0.08380402
19	0xbc6796c3	-0.0141350655
20	0xbe063f83	-0.13110165
21	0xbd64bcb6	-0.05584403
22	0x3d37c8ce	0.044869237
23	0xbc9a61c2	-0.018845443
24	0x3c8628d8	0.016376898
25	0xbd849f5e	-0.064757094
26	0xbe9f36d2	-0.31096512
27	0xbd2b0325	-0.041751046
28	0xbde9a42b	-0.11408266
29	0x3db2e3e0	0.0873487
30	0xbd17e1a8	-0.037080437
31	0xbda67f6d	-0.08129773
32	0xbe255151	-0.16144301
33	0xbe29c3b1	-0.16578557
34	0xbe527ff3	-0.20556621
35	0xbda8b387	-0.08237367
36	0xbd7b0c34	-0.061290935
37	0xbe3c0682	-0.18361858
38	0x3e283436	0.16426167
39	0xbd68bd5d	-0.056821216
40	0x3fafc248	1.3731165
41	0x3eb680d2	0.35645157
42	0x3ddf26a6	0.108960435
43	0xbd102620	-0.03519261
44	0xbe18a035	-0.14904864
45	0xbd873e79	-0.066037126
46	0xbda45060	-0.08023143
47	0xbe329f8d	-0.17443676
48	0x3d837b34	0.064199835
49	0xbc97caf8	-0.0185294
50	0x3ca36860	0.01994723
51	0xbccfc4c5	-0.025362382
52	0x3d90c85a	0.07069464
53	0x3c5b8ab6	0.0133997705
54	0x3bd69a6d	0.0065491707
55	0x3e242b7e	0.16032216
56	0x3de0c976	0.109759256
57	0x3c8967af	0.016773073
58	0xbd2b4b00	-0.041819572
59	0x3cbb6600	0.022875786
60	0xbd1446b5	-0.036200244
61	0x3d2252fa	0.039629914
62	0xbd0bc9ba	-0.03412793
63	0xbdb99966	-0.090624616
64	0x3b603ce1	0.0034215974
65	0xbd5a6501	-0.05331898
66	0xbc531ae0	-0.0128848255
67	0xbd65eac4	-0.056132093
68	0xbb8fe585	-0.0043913745
69	0x3fae68fe	1.3625791
70	0xbd7c3c03	-0.06158067
71	0x3d4d619c	0.050141916
72	0xbd74d9df	-0.05977809
73	0xbc5d78ec	-0.0135176
74	0xbca5f7dc	-0.02025979
75	0xbbb7033e	-0.0055851033
76	0xbea783d2	-0.32717758
77	0xbd082f81	-0.03324843
78	0x3db66fe7	0.089080624
79	0xbd6faba4	-0.0585133
80	0xbc8c7a19	-0.017148064
81	0xbdcff95b	-0.10154983
82	0xbd02ee5e	-0.031965606
83	0xbdf22c3f	-0.118248455
84	0xbddcfad0	-0.10790026
85	0xbc4acc02	-0.012377741
86	0xbd7d2e00	-0.061811447
87	0xbd311eaf	-0.043242153
88	0xbd41cebd	-0.0473163
89	0x3c81e3f9	0.015855776
90	0xbd7e00cd	-0.062012482
91	0xbd14eae3	-0.036356818
92	0xbdfb4637	-0.12269252
93	0xbcfd7807	-0.030941023
94	0xbd660b83	-0.056163322
95	0xbdf6f995	-0.12059323
96	0x3c96f60a	0.018427867
97	0xbdf95322	-0.121740595
98	0xbdcb9495	-0.09940449
99	0xbaa0181f	-0.001221422
100	0x3c86bae0	0.01644653
101	0x3e94c7e3	0.2905875
102	0x3f1b34a4	0.606272
103	0x3f441f60	0.76610374
104	0x3efd05b9	0.4941843
105	0xbdb9e7ee	-0.0907744
106	0x3d4c9890	0.049950182
107	0x3ede0b5b	0.4336804
108	0x3ee8e964	0.45490563
109	0xbda63a93	-0.08116641
110	0xbee5d992	-0.44892555
111	0xbe148312	-0.14503124
112	0xbe88250a	-0.2659076
113	0xbe0c4bac	-0.13700742
114	0x3f3c3075	0.7351144
115	0x3eb4c050	0.35302973
116	0x3ed8b0ff	0.42322537
117	0xbe382944	-0.17984492
118	0xbe42d3d3	-0.19026117
119	0x3c48a57c	0.012246486
120	0xbf74aef0	-0.95579433
121	0x3eca4493	0.39505443
122	0xbd0e0054	-0.03466828
123	0xbe6a2347	-0.2286502
124	0x3dd592ca	0.104283884
125	0xbf3d7f27	-0.74022144
126	0xbdb9c737	-0.090712
127	0xbfbbc4d3	-1.4669441
128	0xbdea905b	-0.11453315
129	0xbde13093	-0.10995593
130	0xbe6615de	-0.22469279
131	0xbef668fd	-0.48126975
132	0x3e827c3b	0.25485405
133	0xbe509e31	-0.20372845
134	0x3de2fa5c	0.110829085
135	0x3f779c2d	0.9672268
136	0x3e59558a	0.21224037
137	0xbe85f052	-0.26159912
138	0xbea3f12c	-0.32019937
139	0xbe817fd1	-0.2529283
140	0xbee1c122	-0.4409266
141	0xbf84f177	-1.0386189
142	0x3dd0d412	0.10196699
143	0xbf1c3936	-0.61024797
144	0xbf2b8860	-0.67004967
145	0xbf430ccd	-0.7619141
146	0xbf0fe99b	-0.5621583
147	0xbeb8d9a6	-0.36103553
148	0x3d8a0d6c	0.06740841
149	0xbe7cbb4a	-0.2468082
150	0xbdc6cd38	-0.09707111
151	0xbe347dac	-0.17626065
152	0xbe2726b3	-0.16323356
153	0xbe1df7d7	-0.15426575
154	0xbf08f4da	-0.53498614
155	0xbe296af7	-0.1654471
156	0x3dcb12f6	0.09915726
157	0x3e063695	0.13106759
158	0xbe454fd7	-0.19268738
159	0x3e942b32	0.28939205
160	0xbeb4fec6	-0.35350627
161	0xbf9ac3e2	-1.2091029
162	0xbd2f707a	-0.042831875
163	0xbef4a7a7	-0.4778416
164	0x3f1094fd	0.5647734
165	0x3e91dc4d	0.2848839
166	0x3e7da413	0.2476962
167	0xbe59b72a	-0.21261278
168	0x3f54ddae	0.83150756
169	0x3d2e378e	0.04253345
170	0xbe8ae391	-0.27126744
171	0x3e8c06d1	0.2734895
172	0xbe64b373	-0.2233408
173	0xbe452e41	-0.19255926
174	0xbcd2e928	-0.025745943
175	0xbe80bd0a	-0.25144225
176	0x3d2a6336	0.04159852
177	0xbf22213d	-0.6333197
178	0x3ea9e94f	0.33185813
179	0x3e124e31	0.1428764
180	0x3f1b37dd	0.60632116
181	0xbe4c97b0	-0.19979739
182	0xbdbb13c7	-0.091346316
183	0xbeaf57f9	-0.34246805
184	0xbca72608	-0.020403877
185	0x3df0a428	0.1175006
186	0x3e0e37a9	0.1388842
187	0x3ee11ae7	0.43965837
188	0xbd991765	-0.07475165
189	0xbd962dea	-0.07332976
190	0xbe8516c4	-0.2599393
191	0xbe9307ed	-0.28716984
192	0x3da6d5e4	0.08146265
193	0x3eb87664	0.36027825
194	0xbdc8c4de	-0.098031744
195	0xbd6e1ae9	-0.058131132
196	0xbea64a16	-0.32478398
197	0x3d0c6bb5	0.034282405
198	0xbe0926d7	-0.13393722
199	0xbcf8acea	-0.03035589
200	0xbc6f6d90	-0.014613524
201	0xbdbfd05e	-0.09365915
202	0xbe0de288	-0.13855946
203	0x3b5c6067	0.0033626796
204	0xbd394cdc	-0.045239314
205	0x3ec2807a	0.37988645
206	0xbe045a8a	-0.12925163
207	0x3d987ff8	0.07446283
208	0x3dd85d79	0.105647035
209	0x3db277d9	0.087142654
210	0x3e1d7bf8	0.15379322
211	0xbd718c42	-0.05897165
212	0x3dc59c97	0.09649008
213	0xbefd57f5	-0.49481168
214	0xbd50f13b	-0.051011305
215	0x3d6280b5	0.055298526
216	0xbd95c2d3	-0.073125504
217	0xbd325bc7	-0.043544557
218	0xbdc378aa	-0.09544499
219	0x3c9579ef	0.018246619
220	0xbee49e8b	-0.4465221
221	0x3eb27857	0.34857437
222	0xbe21be0f	-0.15795158
223	0xbd253dab	-0.040342014
224	0xbd419dd2	-0.04726965
225	0xbd9149e0	-0.07094169
226	0xbe14ef35	-0.14544375
227	0xbeae4cca	-0.3404296
228	0x3d76989d	0.060204137
229	0xbe17b47b	-0.14814942
230	0x3c7a6631	0.015283153
231	0xbddc6f0b	-0.10763367
232	0xbe047dc5	-0.12938602
233	0xbfaf9131	-1.3716184
234	0xbed2328e	-0.41054195
235	0x3b7b4d54	0.0038345652
236	0x3d1a9d95	0.03774794
237	0xbcc1de21	-0.02366549
238	0x3d87162f	0.06596028
239	0xbdf477ab	-0.11936887
240	0x3dc3388f	0.09532272
241	0xbc58bef9	-0.013229125
242	0x3bf091c0	0.0073415935
243	0xbe48a3a5	-0.19593675
244	0x3c01d87f	0.007925152
245	0xbe8dfd88	-0.27732491
246	0xbdd84069	-0.1055916
247	0x3e15cb91	0.14628436
248	0x3d8e1f2c	0.06939539
249	0xbd2eac66	-0.04264488
250	0xbc8ef86c	-0.017452441
251	0x3f4adb65	0.7924102
252	0x3e888d95	0.2667052
253	0xbe0fef7e	-0.14056203
254	0x3d8c8592	0.06861414
255	0x3db50d80	0.088404655

linear1.bias f4 [64]
0	0xbfad4bcc	-1.3538756
1	0xbfc6bcf7	-1.5526417
2	0xbf3dab8a	-0.7408987
3	0x3da8e11e	0.08246063
4	0xbfaa6a35	-1.3313662
5	0xbf174152	-0.59084046
6	0xbeb5e246	-0.35524195
7	0x3dc32ccb	0.09530028
8	0xbf81a4c0	-1.0128403
9	0xbf370dc4	-0.7150538
10	0xbd592c2f	-0.053020652
11	0xbf274b55	-0.6534932
12	0x3e9fb414	0.31192076
13	0x3f3aa7ad	0.729121
14	0x3ed570f3	0.41687736
15	0xbe2bef95	-0.16790612
16	0xbec89a7a	-0.39180356
17	0xbed0bd68	-0.40769506
18	0xbd5c4a66	-0.05378189
19	0x3eb995b6	0.36247033
20	0xbeef5a6c	-0.46748674
21	0xbe37f2d3	-0.17963724
22	0xbf623bfa	-0.88372767
23	0xbf69fdaa	-0.91402686
24	0xbf1e5ee0	-0.6186352
25	0xbfb9e570	-1.4523144
26	0xbfbbdf25	-1.4677473
27	0xbe294c4b	-0.1653301
28	0xbece805a	-0.403323
29	0xbf244195	-0.6416257
30	0x3ca2a7ee	0.019855466
31	0x3d427718	0.047476858
32	0xbe1be1e5	-0.1522289
33	0x3e6ab6b9	0.22921266
34	0xbf7a3350	-0.97734547
35	0xbdfa4042	-0.122192875
36	0xbf69b9df	-0.9129924
37	0x3def2d9a	0.1167862
38	0xbe1771db	-0.14789526
39	0xbdda6866	-0.10664444
40	0xbf9ef593	-1.2418693
41	0xbf4fdfb4	-0.8120072
42	0x3f9f828c	1.2461715
43	0x3f0f1156	0.5588583
44	0x3f48320b	0.7820136
45	0xbf022548	-0.50838137
46	0xbec88d03	-0.39170083
47	0x3f6cc9d3	0.9249546
48	0xbf9c9cf7	-1.2235402
49	0xbd2dc083	-0.04241992
50	0xbedbcb2e	-0.4292845
51	0x3f95bee6	1.1698883
52	0x3f7983ed	0.9746693
53	0xbf95dae0	-1.170742
54	0xbf6785df	-0.90438646
55	0x3f8b7b35	1.0896975
56	0xbe164b04	-0.14677054
57	0x396cdc16	0.00022588702
58	0xbecf86d3	-0.4053255
59	0xbfa2e6a6	-1.2726638
60	0xbf3a6841	-0.7281533
61	0xbc769fb9	-0.015052729
62	0xbfab3fba	-1.3378823
63	0xbfa9e144	-1.3271871

output.weight f4 [1, 64]
0	0x3efb6331	0.49099115
1	0x3f3a81bd	0.72854215
2	0x3f18283d	0.594364
3	0x3dc6d570	0.09708679
4	0xbf47d4e1	-0.780592
5	0x3e3b972d	0.18319388
6	0x3e38c913	0.18045454
7	0x3dd528dd	0.10408185
8	0x3e4f7fc3	0.20263581
9	0x3e65b29a	0.22431412
10	0xbe4715e0	-0.19441938
11	0x3df9e71a	0.12202282
12	0xbe000aa7	-0.12504064
13	0xbda854a8	-0.08219272
14	0xbd625ca5	-0.055264134
15	0x3e947d3f	0.29001805
16	0xbf500ec7	-0.8127255
17	0x3da59d8c	0.0808669
18	0xbea2c06d	-0.31787434
19	0x3d82e32a	0.06390984
20	0x3ea0fd4d	0.31443253
21	0xbe1e64fb	-0.15468208
22	0x3e31e894	0.17373878
23	0x3deb9279	0.11502547
24	0x3e2afd24	0.16698128
25	0x3eefdd65	0.46848598
26	0xbf54a292	-0.8306056
27	0x3d514764	0.051093474
28	0x3de05bcb	0.10955008
29	0x3d830f04	0.063993484
30	0x3d9ac317	0.07556742
31	0xbe5ba5be	-0.21449944
32	0xbe5f2862	-0.21792749
33	0xbd1b869f	-0.03797018
34	0x3ef6b008	0.48181176
35	0xbd47a1f6	-0.048738442
36	0x3e3cebc8	0.18449318
37	0x3d590572	0.05298371
38	0x3ddf63d2	0.10907711
39	0xbe8bba9e	-0.27290815
40	0xbf0c4238	-0.5478854
41	0x3ee1310e	0.43982738
42	0xbdeb9cc2	-0.115045086
43	0x3d80a9c6	0.06282382
44	0xbdc44778	-0.09583944
45	0x3ed8fdbb	0.4238108
46	0x3de9314b	0.11386355
47	0x3de86094	0.11346546
48	0xbdf1a88c	-0.11799726
49	0x3d7d4db2	0.061841674
50	0xbeb989da	-0.36237985
51	0xbdf9a548	-0.12189728
52	0xbe188267	-0.14893495
53	0x3e90ab29	0.28255585
54	0xbec6b411	-0.38809255
55	0xbdcbf3cc	-0.0995861
56	0xbd5a1dda	-0.053251125
57	0x3da9176c	0.082564205
58	0x3d9417f4	0.07231131
59	0x3f216a29	0.6305261
60	0x3dfbca9e	0.122945055
61	0x3d665f83	0.05624343
62	0x3f23d2aa	0.6399332
63	0x3ecacb51	0.39608243
