Data/best_random_params_205.pth (torch, 15624 bytes, 3 tensors)

linear1.weight f4 [64, 50]
0.11695115 -0.09013909 0.030369513 -0.1434542 0.65068775 0.1771528 -0.024620906 -0.08952511
-0.10251683 0.010846022 0.05166757 0.013039751 -0.09714521 -0.31644157 -0.5814328 -0.10501353
0.05416807 -0.104840055 -0.058141075 -0.17233533 -0.058005918 -0.37694263 -0.10965128 -0.78208303
0.12534784 -0.42049807 -0.061272696 0.48825222 0.12609701 -0.10818246 -0.042015135 -0.071873985
-0.34001562 -0.1974531 0.13738854 0.5795379 0.16276337 -0.13550209 -0.13652666 -0.32288504
-0.122077666 -0.6257727 -0.03823997 0.13309324 -0.4630738 -0.19783133 -0.72177523 0.010982623
0.031660393 0.015232638 0.008838847 -0.13151602 0.275019 0.41253233 0.29367754 0.8594427
-0.05002693 -0.08561057 0.109184705 0.07172071 0.30227885 -0.09301556 -0.10247279 -0.94196564
1.5560598 0.08272984 0.07714165 -0.15070947 0.061991107 -0.48125547 -0.9877619 0.82066745
-0.13093022 0.001608049 -0.106608674 -0.4695829 -0.367903 -0.6698425 0.7894084 0.23458762
-0.25190517 -0.31533805 -0.46763188 -0.36753446 -0.35298845 -0.13993867 -0.16702473 -0.12168839
-0.24404475 -0.26740122 -0.1772236 0.049577788 0.016243428 -0.31362554 -0.17026247 -1.2621642
-0.32567316 0.10556406 0.04136443 0.012028535 0.12630631 0.016455293 0.04562275 0.28497747
0.034740433 0.022147747 0.0342796 -0.01951286 -0.0025258916 -0.027614584 0.020300487 -0.004758365
0.035844922 0.051189926 -0.025026513 -0.02199963 -0.009010461 -0.08228714 -0.046751752 0.0878881
0.0069443975 -0.0016187041 -0.039304744 -0.04673591 -0.11415913 -0.039606966 -0.018491175 0.0042397007
-0.040858664 -0.0074642384 -0.08617997 1.119563 -0.03328939 -0.04277618 0.024047263 -0.06395427
-0.0505868 -0.096365064 -0.00026337025 -0.043918453 -0.017848823 0.012311049 0.072601706 -0.02650078
-0.07463649 -0.36656496 -0.026720166 0.0037733074 -0.117696814 0.014785214 0.1150931 0.09111795
0.29536265 -0.06500511 0.2391499 -0.045736063 0.027310312 0.060297847 0.26331457 0.25010058
0.08708507 0.15991974 -0.5667984 -0.16657838 -0.37514725 -0.049691737 0.4935371 0.8263427
0.13169207 -1.0799689 -0.036210515 -0.04442917 0.0048258263 -0.27660063 -0.113346435 0.208144
-0.012812676 -0.01315235 0.20239599 -0.19557723 0.15729812 -0.117329225 -0.08240475 -0.1565649
-0.22499387 0.063189566 0.01796289 0.022243045 0.032412715 0.09196448 -0.03585761 -0.008801634
0.08696292 0.0017582377 -0.08686465 -0.15243644 0.09990626 -0.045796886 0.06915632 0.033686206
0.10173534 0.112441294 0.4851545 -0.12093318 0.12217712 0.28818446 0.12082864 -0.22339067
-0.20565735 -0.4776439 0.03611791 0.024395421 0.31269598 -0.09132802 0.068490244 0.206085
0.55845505 -0.40397188 0.20384389 1.1085093 0.34739816 -0.25108075 0.02712504 -0.5049931
0.00415121 -0.1371665 0.029178591 0.0009277272 0.0965817 0.08485698 -0.07301459 -0.14367642
-0.08446905 -0.1468915 -0.18883751 -0.037538957 0.019257449 -0.13853216 -0.09116495 0.009490704
-0.34378484 -0.19411327 0.05070488 -0.02413742 -0.51275885 0.040187437 -0.048220024 -0.1057653
-0.030431978 -0.024041815 0.07657437 0.18382645 0.5460279 0.9414683 0.015298535 0.04641774
00000000: 1684 ef3d d89a b8bd 7cc9 f83c a8e5 12be
00000010: 7993 263f 8b67 353e c8b1 c9bc f158 b7bd
00000020: 58f4 d1bd 83b3 313c 60a1 533d aea4 553c
00000030: 11f4 c6bd a104 a2be c8d8 14bf 5511 d7bd
00000040: 57df 5d3d 62b6 d6bd 5625 6ebd ac78 30be
00000050: 9d97 6dbd a0fe c0be da90 e0bd 9836 48bf
00000060: 2f5b 003e 864b d7be 14f9 7abd 32fc f93e
00000070: 931f 013e c48e ddbd 1018 2cbd ab32 93bd
00000080: 8716 aebe 2531 4abe 95af 0c3e 995c 143f
00000090: 71ab 263e 0fc1 0abe a5cd 0bbe 3051 a5be
000000a0: db03 fabd a432 20bf 84a1 1cbd 9849 083e
000000b0: 0218 edbe 4c94 4abe 43c6 38bf 76f0 333c
000000c0: 54ae 013d 5192 793c d0d0 103c 23ac 06be
000000d0: 4acf 8c3e 7037 d33e e75c 963e 7004 5c3f
000000e0: 0ae9 4cbd 9854 afbd 3b9c df3d 4fe2 923d
000000f0: 4bc4 9a3e f17e bebd 41dd d1bd a924 71bf
00000100: f82c c73f 436e a93d 71fc 9d3d 9553 1abe
00000110: 63ea 7d3d 1e67 f6be f7dd 7cbf 4317 523f
00000120: 9212 06be 2cc5 d23a a655 dabd 2b6d f0be
00000130: c85d bcbe cc7a 2bbf ab16 4a3f bd37 703e
00000140: b7f9 80be fd73 a1be 726d efbe 7a2d bcbe
00000150: e7ba b4be 154c 0fbe 8808 2bbe c337 f9bd
00000160: dee6 79be d0e8 88be 1a7a 35be 1412 4b3d
00000170: f010 853c 8793 a0be 4959 2ebe 998e a1bf
00000180: a2be a6be f831 d83d c06d 293d 5513 453c
00000190: 7156 013e 40cd 863c ecde 3a3d 91e8 913e
000001a0: fc4b 0e3d 316f b53c c468 0c3d 6fd9 9fbc
000001b0: 6e89 25bb fb37 e2bc 354d a63c 0fec 9bbb
000001c0: 20d2 123d 87ac 513d 6704 cdbc 9138 b4bc
000001d0: 9da0 13bc 2986 a8bd c47e 3fbd adfe b33d
000001e0: d48d e33b b22a d4ba 03fe 20bd 276e 3fbd
000001f0: 43cc e9bd ea3a 22bd ce7a 97bc 30ed 8a3b
00000200: 6a5b 27bd 9296 f4bb 207f b0bd d74d 8f3f
00000210: 755a 08bd 1336 2fbd c4fe c43c 75fa 82bd
00000220: 1b34 4fbd 0c5b c5bd f514 8ab9 d6e3 33bd
00000230: b237 92bc 48b4 493c 34b0 943d 2a18 d9bc
00000240: 04db 98bd 67ae bbbe 40e4 dabc 9849 773b
00000250: 070b f1bd af3d 723c eeb5 eb3d 0c9c ba3d
00000260: c639 973e 6621 85bd b6e3 743e bd55 3bbd
00000270: e0b9 df3c e0fa 763d 2bd1 863e 2f0d 803e
00000280: a859 b23d 00c2 233e b319 11bf 8693 2abe
00000290: 4d13 c0be 9089 4bbd e5b0 fc3e 328b 533f
000002a0: 49da 063e 6c3c 8abf 7a51 14bd 5dfb 35bd
000002b0: f721 9e3b 999e 8dbe 2d22 e8bd b323 553e
000002c0: 42ec 51bc f47c 57bc e540 4f3e 6645 48be
000002d0: c212 213e 4e4a f0bd d2c3 a8bd 8d52 20be
000002e0: cb64 66be 8869 813d e926 933c 0c37 b63c
000002f0: 32c3 043d e057 bc3d 6edf 12bd bb34 10bc
00000300: 9e19 b23d ab74 e63a 18e6 b1bd 4c18 1cbe
00000310: a79b cc3d 8495 3bbd d4a1 8d3d 8cfa 093d
00000320: 9e5a d03d 9f47 e63d 2c66 f83e d1ab f7bd
00000330: ff37 fa3d ea8c 933e 0275 f73d 86c0 64be
00000340: d797 52be be8d f4be 60f0 133d e8d8 c73c
00000350: b019 a03e 2f0a bbbd 9d44 8c3d f207 533e
00000360: e9f6 0e3f 67d5 cebe 74bc 503e a2e3 8d3f
00000370: 2cde b13e a88d 80be 5535 de3c 3a47 01bf
00000380: e006 883b 6075 0cbe f107 ef3c b832 733a
00000390: a0cc c53d 7fc9 ad3d ac88 95bd e91f 13be
000003a0: 1cfe acbd ba6a 16be 9f5e 41be 73c2 19bd
000003b0: ccc1 9d3c 60db 0dbe b0b4 babd e67e 1b3c
000003c0: 9104 b0be a1c5 46be ecaf 4f3d d7bb c5bc
000003d0: 2a44 03bf 959b 243d 5c82 45bd 7a9b d8bd
000003e0: 7c4c f9bc 57f3 c4bc 06d3 9c3d 003d 3c3e
000003f0: 7cc8 0b3f 1104 713f b5a6 7a3c 8720 3e3d

linear1.bias f4 [64]
-0.4716857 -1.0437255 -1.2341152 0.21467845 -0.5353846 0.71643907 -0.29876804 -0.36692572
0.7180588 0.732607 0.63931096 -0.8517183 -1.0137686 0.58651096 0.6062096 -0.3423032
-0.40855238 0.16801286 -0.7430523 -0.96344125 -0.36661252 -0.8984274 -0.6132488 0.19815351
-0.15209173 -0.6356685 -0.9071695 -1.12591 -0.44963726 -0.013828924 -0.5641641 1.0317286
0.67364085 -0.35591075 -0.6901032 -0.5483613 -0.6778297 -0.28471857 -0.10828031 -0.36006582
0.23123617 -0.40816492 -1.3385444 -0.8299761 -0.43369073 -0.53480196 0.28303567 0.7805919
0.28279388 0.31254387 -0.56702554 0.065667085 -0.34082794 0.092036955 0.1282151 0.41488105
0.351868 -0.56285095 -0.8203065 -1.166969 0.21550131 -0.36151248 -0.8439543 -0.18760546
00000000: ca80 f1be cc98 85bf 7df7 9dbf abd4 5b3e
00000010: f70e 09bf 8d68 373f 20f8 98be b0dd bbbe
00000020: b4d2 373f 228c 3b3f e2a9 233f 360a 5abf
00000030: 2bc3 81bf 9525 163f 8d30 1b3f 5d42 afbe
00000040: c72d d1be 900b 2c3e ad38 3ebf 16a4 76bf
00000050: a3b4 bbbe 57ff 65bf e0fd 1cbf c1e8 4a3e
00000060: efbd 1bbe 2cbb 22bf 433c 68bf d21d 90bf
00000070: db36 e6be b692 62bc 0f6d 10bf af0f 843f
00000080: ba73 2c3f ef39 b6be 9aaa 30bf 6861 0cbf
00000090: 3f86 2dbf a2c6 91be 11c2 ddbd 8c5a b8be
000000a0: 2dc9 6c3e fefa d0be 6c55 abbf 5079 54bf
000000b0: b60c debe c8e8 08bf 0dea 903e dfd4 473f
000000c0: 5cca 903e c005 a03e 9628 11bf 777c 863d
000000d0: 0081 aebe df7d bc3d d24a 033e 4a6b d43e
000000e0: 0b28 b43e 0017 10bf 9bff 51bf 3d5f 95bf
000000f0: 60ac 5c3e 2a18 b9be 640d 58bf a51b 40be

output.weight f4 [1, 64]
-0.11915166 -0.8220851 0.5032931 0.09855729 0.14982045 -0.14286017 0.64462996 -0.28432313
-0.13401432 -0.1389054 -0.10892516 0.30464262 -0.14010273 -0.07062069 0.16898862 0.20847918
0.22759846 0.112036094 0.21809979 0.4447487 0.18004982 0.27375862 -0.7171388 0.087725766
0.4192692 0.10385179 -0.53868234 -0.63651216 0.16092946 -0.10260338 0.2746326 -0.21199527
-0.13442014 -0.34482896 0.2278859 0.20269401 0.44584203 0.07204183 -0.53459233 -0.31508532
-0.16404618 0.17919554 -0.24484679 -0.40223718 -0.43893057 0.27014074 -0.08331443 -0.076689094
-0.09234022 0.10877496 -0.3571981 -0.11376286 0.23805887 -0.11241049 -0.077640615 -0.07154791
0.074655026 -0.40496504 0.16523753 -0.93192106 0.15700562 0.15299991 0.2894391 0.077055
00000000: c905 f4bd 2b74 52bf d1d7 003f 68d8 c93d
00000010: 886a 193e f049 12be 7806 253f cd92 91be
00000020: 0d3b 09be 383d 0ebe 2714 dfbd 1efa 9b3e
00000030: 1777 0fbe 95a1 90bd 5a0b 2d3e 917b 553e
00000040: 920f 693e 2e73 e53d 8d55 5f3e 1ab6 e33e
00000050: fb5e 383e 172a 8c3e 6996 37bf 91a9 b33d
00000060: 74aa d63e 3fb0 d43d 16e7 09bf 76f2 22bf
00000070: b1ca 243e b921 d2bd a59c 8c3e 4a15 59be
00000080: 6fa5 09be 6c8d b0be ec5a 693e 058f 4f3e
00000090: 6845 e43e ab8a 933d 0bdb 08bf dd52 a1be
000000a0: b9fb 27be 097f 373e 1eb9 7abe 08f2 cdbe
000000b0: 82bb e0be e34f 8a3e c2a0 aabd 2c0f 9dbd
000000c0: df1c bdbd 68c5 de3d abe2 b6be 81fc e8bd
000000d0: b4c5 733e 7937 e6bd 0b02 9fbd b687 92bd
000000e0: bce4 983d 9457 cfbe 0734 293e 6192 6ebf
000000f0: 15c6 203e 02ac 1c3e 5d31 943e 03cf 9d3d
